<?xml version="1.0"?>
<net name="torch-jit-export" version="11">
	<layers>
		<layer id="0" name="input" type="Parameter" version="opset1">
			<data shape="1,3,208,208" element_type="f32" />
			<output>
				<port id="0" precision="FP32" names="input">
					<dim>1</dim>
					<dim>3</dim>
					<dim>208</dim>
					<dim>208</dim>
					<rt_info>
						<attribute name="layout" version="0" layout="[N,C,H,W]" />
					</rt_info>
				</port>
			</output>
		</layer>
		<layer id="1" name="Range_5196" type="Const" version="opset1">
			<data element_type="i32" shape="3" offset="0" size="12" />
			<output>
				<port id="0" precision="I32">
					<dim>3</dim>
				</port>
			</output>
		</layer>
		<layer id="2" name="Constant_5197" type="Const" version="opset1">
			<data element_type="i32" shape="1" offset="12" size="4" />
			<output>
				<port id="0" precision="I32">
					<dim>1</dim>
				</port>
			</output>
		</layer>
		<layer id="3" name="Gather_5198" type="Gather" version="opset8">
			<data batch_dims="0" />
			<rt_info>
				<attribute name="preprocessing" version="0" />
			</rt_info>
			<input>
				<port id="0" precision="FP32">
					<dim>1</dim>
					<dim>3</dim>
					<dim>208</dim>
					<dim>208</dim>
				</port>
				<port id="1" precision="I32">
					<dim>3</dim>
				</port>
				<port id="2" precision="I32">
					<dim>1</dim>
				</port>
			</input>
			<output>
				<port id="3" precision="FP32">
					<dim>1</dim>
					<dim>3</dim>
					<dim>208</dim>
					<dim>208</dim>
				</port>
			</output>
		</layer>
		<layer id="4" name="Constant_561" type="Const" version="opset1">
			<data element_type="i64" shape="2" offset="16" size="16" />
			<output>
				<port id="0" precision="I64">
					<dim>2</dim>
				</port>
			</output>
		</layer>
		<layer id="5" name="MVN_562" type="MVN" version="opset6">
			<data eps="9.9999997473787516e-06" normalize_variance="true" eps_mode="INSIDE_SQRT" />
			<input>
				<port id="0" precision="FP32">
					<dim>1</dim>
					<dim>3</dim>
					<dim>208</dim>
					<dim>208</dim>
				</port>
				<port id="1" precision="I64">
					<dim>2</dim>
				</port>
			</input>
			<output>
				<port id="2" precision="FP32">
					<dim>1</dim>
					<dim>3</dim>
					<dim>208</dim>
					<dim>208</dim>
				</port>
			</output>
		</layer>
		<layer id="6" name="Reshape_574" type="Const" version="opset1">
			<data element_type="f32" shape="1, 3, 1, 1" offset="32" size="12" />
			<output>
				<port id="0" precision="FP32">
					<dim>1</dim>
					<dim>3</dim>
					<dim>1</dim>
					<dim>1</dim>
				</port>
			</output>
		</layer>
		<layer id="7" name="Multiply_577" type="Multiply" version="opset1">
			<data auto_broadcast="numpy" />
			<input>
				<port id="0" precision="FP32">
					<dim>1</dim>
					<dim>3</dim>
					<dim>208</dim>
					<dim>208</dim>
				</port>
				<port id="1" precision="FP32">
					<dim>1</dim>
					<dim>3</dim>
					<dim>1</dim>
					<dim>1</dim>
				</port>
			</input>
			<output>
				<port id="2" precision="FP32">
					<dim>1</dim>
					<dim>3</dim>
					<dim>208</dim>
					<dim>208</dim>
				</port>
			</output>
		</layer>
		<layer id="8" name="Reshape_587" type="Const" version="opset1">
			<data element_type="f32" shape="1, 3, 1, 1" offset="44" size="12" />
			<output>
				<port id="0" precision="FP32">
					<dim>1</dim>
					<dim>3</dim>
					<dim>1</dim>
					<dim>1</dim>
				</port>
			</output>
		</layer>
		<layer id="9" name="560" type="Add" version="opset1">
			<data auto_broadcast="numpy" />
			<input>
				<port id="0" precision="FP32">
					<dim>1</dim>
					<dim>3</dim>
					<dim>208</dim>
					<dim>208</dim>
				</port>
				<port id="1" precision="FP32">
					<dim>1</dim>
					<dim>3</dim>
					<dim>1</dim>
					<dim>1</dim>
				</port>
			</input>
			<output>
				<port id="2" precision="FP32" names="560">
					<dim>1</dim>
					<dim>3</dim>
					<dim>208</dim>
					<dim>208</dim>
				</port>
			</output>
		</layer>
		<layer id="10" name="conv1.conv.weight" type="Const" version="opset1">
			<data element_type="f32" shape="64, 3, 7, 7" offset="56" size="37632" />
			<output>
				<port id="0" precision="FP32" names="conv1.conv.weight">
					<dim>64</dim>
					<dim>3</dim>
					<dim>7</dim>
					<dim>7</dim>
				</port>
			</output>
		</layer>
		<layer id="11" name="561" type="Convolution" version="opset1">
			<data strides="2, 2" dilations="1, 1" pads_begin="3, 3" pads_end="3, 3" auto_pad="explicit" />
			<input>
				<port id="0" precision="FP32">
					<dim>1</dim>
					<dim>3</dim>
					<dim>208</dim>
					<dim>208</dim>
				</port>
				<port id="1" precision="FP32">
					<dim>64</dim>
					<dim>3</dim>
					<dim>7</dim>
					<dim>7</dim>
				</port>
			</input>
			<output>
				<port id="2" precision="FP32" names="561">
					<dim>1</dim>
					<dim>64</dim>
					<dim>104</dim>
					<dim>104</dim>
				</port>
			</output>
		</layer>
		<layer id="12" name="Constant_593" type="Const" version="opset1">
			<data element_type="i64" shape="2" offset="16" size="16" />
			<output>
				<port id="0" precision="I64">
					<dim>2</dim>
				</port>
			</output>
		</layer>
		<layer id="13" name="MVN_594" type="MVN" version="opset6">
			<data eps="9.9999997473787516e-06" normalize_variance="true" eps_mode="INSIDE_SQRT" />
			<input>
				<port id="0" precision="FP32">
					<dim>1</dim>
					<dim>64</dim>
					<dim>104</dim>
					<dim>104</dim>
				</port>
				<port id="1" precision="I64">
					<dim>2</dim>
				</port>
			</input>
			<output>
				<port id="2" precision="FP32">
					<dim>1</dim>
					<dim>64</dim>
					<dim>104</dim>
					<dim>104</dim>
				</port>
			</output>
		</layer>
		<layer id="14" name="Reshape_606" type="Const" version="opset1">
			<data element_type="f32" shape="1, 64, 1, 1" offset="37688" size="256" />
			<output>
				<port id="0" precision="FP32">
					<dim>1</dim>
					<dim>64</dim>
					<dim>1</dim>
					<dim>1</dim>
				</port>
			</output>
		</layer>
		<layer id="15" name="Multiply_609" type="Multiply" version="opset1">
			<data auto_broadcast="numpy" />
			<input>
				<port id="0" precision="FP32">
					<dim>1</dim>
					<dim>64</dim>
					<dim>104</dim>
					<dim>104</dim>
				</port>
				<port id="1" precision="FP32">
					<dim>1</dim>
					<dim>64</dim>
					<dim>1</dim>
					<dim>1</dim>
				</port>
			</input>
			<output>
				<port id="2" precision="FP32">
					<dim>1</dim>
					<dim>64</dim>
					<dim>104</dim>
					<dim>104</dim>
				</port>
			</output>
		</layer>
		<layer id="16" name="Reshape_619" type="Const" version="opset1">
			<data element_type="f32" shape="1, 64, 1, 1" offset="37944" size="256" />
			<output>
				<port id="0" precision="FP32">
					<dim>1</dim>
					<dim>64</dim>
					<dim>1</dim>
					<dim>1</dim>
				</port>
			</output>
		</layer>
		<layer id="17" name="562" type="Add" version="opset1">
			<data auto_broadcast="numpy" />
			<input>
				<port id="0" precision="FP32">
					<dim>1</dim>
					<dim>64</dim>
					<dim>104</dim>
					<dim>104</dim>
				</port>
				<port id="1" precision="FP32">
					<dim>1</dim>
					<dim>64</dim>
					<dim>1</dim>
					<dim>1</dim>
				</port>
			</input>
			<output>
				<port id="2" precision="FP32" names="562">
					<dim>1</dim>
					<dim>64</dim>
					<dim>104</dim>
					<dim>104</dim>
				</port>
			</output>
		</layer>
		<layer id="18" name="563" type="ReLU" version="opset1">
			<input>
				<port id="0" precision="FP32">
					<dim>1</dim>
					<dim>64</dim>
					<dim>104</dim>
					<dim>104</dim>
				</port>
			</input>
			<output>
				<port id="1" precision="FP32" names="563">
					<dim>1</dim>
					<dim>64</dim>
					<dim>104</dim>
					<dim>104</dim>
				</port>
			</output>
		</layer>
		<layer id="19" name="564" type="MaxPool" version="opset8">
			<data strides="2, 2" dilations="1, 1" pads_begin="1, 1" pads_end="1, 1" kernel="3, 3" rounding_type="floor" auto_pad="explicit" index_element_type="i64" axis="0" />
			<input>
				<port id="0" precision="FP32">
					<dim>1</dim>
					<dim>64</dim>
					<dim>104</dim>
					<dim>104</dim>
				</port>
			</input>
			<output>
				<port id="1" precision="FP32" names="564">
					<dim>1</dim>
					<dim>64</dim>
					<dim>52</dim>
					<dim>52</dim>
				</port>
				<port id="2" precision="I64">
					<dim>1</dim>
					<dim>64</dim>
					<dim>52</dim>
					<dim>52</dim>
				</port>
			</output>
		</layer>
		<layer id="20" name="Multiply_20377" type="Const" version="opset1">
			<data element_type="f32" shape="64, 64, 1, 1" offset="38200" size="16384" />
			<output>
				<port id="0" precision="FP32">
					<dim>64</dim>
					<dim>64</dim>
					<dim>1</dim>
					<dim>1</dim>
				</port>
			</output>
		</layer>
		<layer id="21" name="Multiply_19837" type="Convolution" version="opset1">
			<data strides="1, 1" dilations="1, 1" pads_begin="0, 0" pads_end="0, 0" auto_pad="explicit" />
			<input>
				<port id="0" precision="FP32">
					<dim>1</dim>
					<dim>64</dim>
					<dim>52</dim>
					<dim>52</dim>
				</port>
				<port id="1" precision="FP32">
					<dim>64</dim>
					<dim>64</dim>
					<dim>1</dim>
					<dim>1</dim>
				</port>
			</input>
			<output>
				<port id="2" precision="FP32">
					<dim>1</dim>
					<dim>64</dim>
					<dim>52</dim>
					<dim>52</dim>
				</port>
			</output>
		</layer>
		<layer id="22" name="Constant_19842" type="Const" version="opset1">
			<data element_type="f32" shape="1, 64, 1, 1" offset="54584" size="256" />
			<output>
				<port id="0" precision="FP32">
					<dim>1</dim>
					<dim>64</dim>
					<dim>1</dim>
					<dim>1</dim>
				</port>
			</output>
		</layer>
		<layer id="23" name="568" type="Add" version="opset1">
			<data auto_broadcast="numpy" />
			<input>
				<port id="0" precision="FP32">
					<dim>1</dim>
					<dim>64</dim>
					<dim>52</dim>
					<dim>52</dim>
				</port>
				<port id="1" precision="FP32">
					<dim>1</dim>
					<dim>64</dim>
					<dim>1</dim>
					<dim>1</dim>
				</port>
			</input>
			<output>
				<port id="2" precision="FP32" names="568">
					<dim>1</dim>
					<dim>64</dim>
					<dim>52</dim>
					<dim>52</dim>
				</port>
			</output>
		</layer>
		<layer id="24" name="569" type="ReLU" version="opset1">
			<input>
				<port id="0" precision="FP32">
					<dim>1</dim>
					<dim>64</dim>
					<dim>52</dim>
					<dim>52</dim>
				</port>
			</input>
			<output>
				<port id="1" precision="FP32" names="569">
					<dim>1</dim>
					<dim>64</dim>
					<dim>52</dim>
					<dim>52</dim>
				</port>
			</output>
		</layer>
		<layer id="25" name="conv2.0.conv2.0.layers.0.conv1.weight" type="Const" version="opset1">
			<data element_type="f32" shape="64, 64, 1, 1" offset="54840" size="16384" />
			<output>
				<port id="0" precision="FP32" names="conv2.0.conv2.0.layers.0.conv1.weight">
					<dim>64</dim>
					<dim>64</dim>
					<dim>1</dim>
					<dim>1</dim>
				</port>
			</output>
		</layer>
		<layer id="26" name="570" type="Convolution" version="opset1">
			<data strides="1, 1" dilations="1, 1" pads_begin="0, 0" pads_end="0, 0" auto_pad="explicit" />
			<input>
				<port id="0" precision="FP32">
					<dim>1</dim>
					<dim>64</dim>
					<dim>52</dim>
					<dim>52</dim>
				</port>
				<port id="1" precision="FP32">
					<dim>64</dim>
					<dim>64</dim>
					<dim>1</dim>
					<dim>1</dim>
				</port>
			</input>
			<output>
				<port id="2" precision="FP32" names="570">
					<dim>1</dim>
					<dim>64</dim>
					<dim>52</dim>
					<dim>52</dim>
				</port>
			</output>
		</layer>
		<layer id="27" name="Multiply_20381" type="Const" version="opset1">
			<data element_type="f32" shape="64, 1, 1, 3, 3" offset="71224" size="2304" />
			<output>
				<port id="0" precision="FP32">
					<dim>64</dim>
					<dim>1</dim>
					<dim>1</dim>
					<dim>3</dim>
					<dim>3</dim>
				</port>
			</output>
		</layer>
		<layer id="28" name="Multiply_19844" type="GroupConvolution" version="opset1">
			<data strides="1, 1" pads_begin="1, 1" pads_end="1, 1" dilations="1, 1" auto_pad="explicit" />
			<input>
				<port id="0" precision="FP32">
					<dim>1</dim>
					<dim>64</dim>
					<dim>52</dim>
					<dim>52</dim>
				</port>
				<port id="1" precision="FP32">
					<dim>64</dim>
					<dim>1</dim>
					<dim>1</dim>
					<dim>3</dim>
					<dim>3</dim>
				</port>
			</input>
			<output>
				<port id="2" precision="FP32" names="571">
					<dim>1</dim>
					<dim>64</dim>
					<dim>52</dim>
					<dim>52</dim>
				</port>
			</output>
		</layer>
		<layer id="29" name="Constant_19849" type="Const" version="opset1">
			<data element_type="f32" shape="1, 64, 1, 1" offset="73528" size="256" />
			<output>
				<port id="0" precision="FP32">
					<dim>1</dim>
					<dim>64</dim>
					<dim>1</dim>
					<dim>1</dim>
				</port>
			</output>
		</layer>
		<layer id="30" name="572" type="Add" version="opset1">
			<data auto_broadcast="numpy" />
			<input>
				<port id="0" precision="FP32">
					<dim>1</dim>
					<dim>64</dim>
					<dim>52</dim>
					<dim>52</dim>
				</port>
				<port id="1" precision="FP32">
					<dim>1</dim>
					<dim>64</dim>
					<dim>1</dim>
					<dim>1</dim>
				</port>
			</input>
			<output>
				<port id="2" precision="FP32" names="572">
					<dim>1</dim>
					<dim>64</dim>
					<dim>52</dim>
					<dim>52</dim>
				</port>
			</output>
		</layer>
		<layer id="31" name="573" type="ReLU" version="opset1">
			<input>
				<port id="0" precision="FP32">
					<dim>1</dim>
					<dim>64</dim>
					<dim>52</dim>
					<dim>52</dim>
				</port>
			</input>
			<output>
				<port id="1" precision="FP32" names="573">
					<dim>1</dim>
					<dim>64</dim>
					<dim>52</dim>
					<dim>52</dim>
				</port>
			</output>
		</layer>
		<layer id="32" name="Range_691" type="Const" version="opset1">
			<data element_type="i64" shape="2" offset="16" size="16" />
			<output>
				<port id="0" precision="I64">
					<dim>2</dim>
				</port>
			</output>
		</layer>
		<layer id="33" name="574" type="ReduceMean" version="opset1">
			<data keep_dims="true" />
			<input>
				<port id="0" precision="FP32">
					<dim>1</dim>
					<dim>64</dim>
					<dim>52</dim>
					<dim>52</dim>
				</port>
				<port id="1" precision="I64">
					<dim>2</dim>
				</port>
			</input>
			<output>
				<port id="2" precision="FP32" names="574">
					<dim>1</dim>
					<dim>64</dim>
					<dim>1</dim>
					<dim>1</dim>
				</port>
			</output>
		</layer>
		<layer id="34" name="conv2.0.gate.fc1.weight" type="Const" version="opset1">
			<data element_type="f32" shape="4, 64, 1, 1" offset="73784" size="1024" />
			<output>
				<port id="0" precision="FP32" names="conv2.0.gate.fc1.weight">
					<dim>4</dim>
					<dim>64</dim>
					<dim>1</dim>
					<dim>1</dim>
				</port>
			</output>
		</layer>
		<layer id="35" name="575/WithoutBiases" type="Convolution" version="opset1">
			<data strides="1, 1" dilations="1, 1" pads_begin="0, 0" pads_end="0, 0" auto_pad="explicit" />
			<input>
				<port id="0" precision="FP32">
					<dim>1</dim>
					<dim>64</dim>
					<dim>1</dim>
					<dim>1</dim>
				</port>
				<port id="1" precision="FP32">
					<dim>4</dim>
					<dim>64</dim>
					<dim>1</dim>
					<dim>1</dim>
				</port>
			</input>
			<output>
				<port id="2" precision="FP32">
					<dim>1</dim>
					<dim>4</dim>
					<dim>1</dim>
					<dim>1</dim>
				</port>
			</output>
		</layer>
		<layer id="36" name="Reshape_709" type="Const" version="opset1">
			<data element_type="f32" shape="1, 4, 1, 1" offset="74808" size="16" />
			<output>
				<port id="0" precision="FP32">
					<dim>1</dim>
					<dim>4</dim>
					<dim>1</dim>
					<dim>1</dim>
				</port>
			</output>
		</layer>
		<layer id="37" name="575" type="Add" version="opset1">
			<data auto_broadcast="numpy" />
			<input>
				<port id="0" precision="FP32">
					<dim>1</dim>
					<dim>4</dim>
					<dim>1</dim>
					<dim>1</dim>
				</port>
				<port id="1" precision="FP32">
					<dim>1</dim>
					<dim>4</dim>
					<dim>1</dim>
					<dim>1</dim>
				</port>
			</input>
			<output>
				<port id="2" precision="FP32" names="575">
					<dim>1</dim>
					<dim>4</dim>
					<dim>1</dim>
					<dim>1</dim>
				</port>
			</output>
		</layer>
		<layer id="38" name="576" type="ReLU" version="opset1">
			<input>
				<port id="0" precision="FP32">
					<dim>1</dim>
					<dim>4</dim>
					<dim>1</dim>
					<dim>1</dim>
				</port>
			</input>
			<output>
				<port id="1" precision="FP32" names="576">
					<dim>1</dim>
					<dim>4</dim>
					<dim>1</dim>
					<dim>1</dim>
				</port>
			</output>
		</layer>
		<layer id="39" name="conv2.0.gate.fc2.weight" type="Const" version="opset1">
			<data element_type="f32" shape="64, 4, 1, 1" offset="74824" size="1024" />
			<output>
				<port id="0" precision="FP32" names="conv2.0.gate.fc2.weight">
					<dim>64</dim>
					<dim>4</dim>
					<dim>1</dim>
					<dim>1</dim>
				</port>
			</output>
		</layer>
		<layer id="40" name="577/WithoutBiases" type="Convolution" version="opset1">
			<data strides="1, 1" dilations="1, 1" pads_begin="0, 0" pads_end="0, 0" auto_pad="explicit" />
			<input>
				<port id="0" precision="FP32">
					<dim>1</dim>
					<dim>4</dim>
					<dim>1</dim>
					<dim>1</dim>
				</port>
				<port id="1" precision="FP32">
					<dim>64</dim>
					<dim>4</dim>
					<dim>1</dim>
					<dim>1</dim>
				</port>
			</input>
			<output>
				<port id="2" precision="FP32">
					<dim>1</dim>
					<dim>64</dim>
					<dim>1</dim>
					<dim>1</dim>
				</port>
			</output>
		</layer>
		<layer id="41" name="Reshape_726" type="Const" version="opset1">
			<data element_type="f32" shape="1, 64, 1, 1" offset="75848" size="256" />
			<output>
				<port id="0" precision="FP32">
					<dim>1</dim>
					<dim>64</dim>
					<dim>1</dim>
					<dim>1</dim>
				</port>
			</output>
		</layer>
		<layer id="42" name="577" type="Add" version="opset1">
			<data auto_broadcast="numpy" />
			<input>
				<port id="0" precision="FP32">
					<dim>1</dim>
					<dim>64</dim>
					<dim>1</dim>
					<dim>1</dim>
				</port>
				<port id="1" precision="FP32">
					<dim>1</dim>
					<dim>64</dim>
					<dim>1</dim>
					<dim>1</dim>
				</port>
			</input>
			<output>
				<port id="2" precision="FP32" names="577">
					<dim>1</dim>
					<dim>64</dim>
					<dim>1</dim>
					<dim>1</dim>
				</port>
			</output>
		</layer>
		<layer id="43" name="578" type="Sigmoid" version="opset1">
			<input>
				<port id="0" precision="FP32">
					<dim>1</dim>
					<dim>64</dim>
					<dim>1</dim>
					<dim>1</dim>
				</port>
			</input>
			<output>
				<port id="1" precision="FP32" names="578">
					<dim>1</dim>
					<dim>64</dim>
					<dim>1</dim>
					<dim>1</dim>
				</port>
			</output>
		</layer>
		<layer id="44" name="579" type="Multiply" version="opset1">
			<data auto_broadcast="numpy" />
			<input>
				<port id="0" precision="FP32">
					<dim>1</dim>
					<dim>64</dim>
					<dim>52</dim>
					<dim>52</dim>
				</port>
				<port id="1" precision="FP32">
					<dim>1</dim>
					<dim>64</dim>
					<dim>1</dim>
					<dim>1</dim>
				</port>
			</input>
			<output>
				<port id="2" precision="FP32" names="579">
					<dim>1</dim>
					<dim>64</dim>
					<dim>52</dim>
					<dim>52</dim>
				</port>
			</output>
		</layer>
		<layer id="45" name="conv2.0.conv2.1.layers.0.conv1.weight" type="Const" version="opset1">
			<data element_type="f32" shape="64, 64, 1, 1" offset="76104" size="16384" />
			<output>
				<port id="0" precision="FP32" names="conv2.0.conv2.1.layers.0.conv1.weight">
					<dim>64</dim>
					<dim>64</dim>
					<dim>1</dim>
					<dim>1</dim>
				</port>
			</output>
		</layer>
		<layer id="46" name="580" type="Convolution" version="opset1">
			<data strides="1, 1" dilations="1, 1" pads_begin="0, 0" pads_end="0, 0" auto_pad="explicit" />
			<input>
				<port id="0" precision="FP32">
					<dim>1</dim>
					<dim>64</dim>
					<dim>52</dim>
					<dim>52</dim>
				</port>
				<port id="1" precision="FP32">
					<dim>64</dim>
					<dim>64</dim>
					<dim>1</dim>
					<dim>1</dim>
				</port>
			</input>
			<output>
				<port id="2" precision="FP32" names="580">
					<dim>1</dim>
					<dim>64</dim>
					<dim>52</dim>
					<dim>52</dim>
				</port>
			</output>
		</layer>
		<layer id="47" name="Multiply_20384" type="Const" version="opset1">
			<data element_type="f32" shape="64, 1, 1, 3, 3" offset="92488" size="2304" />
			<output>
				<port id="0" precision="FP32">
					<dim>64</dim>
					<dim>1</dim>
					<dim>1</dim>
					<dim>3</dim>
					<dim>3</dim>
				</port>
			</output>
		</layer>
		<layer id="48" name="Multiply_19851" type="GroupConvolution" version="opset1">
			<data strides="1, 1" pads_begin="1, 1" pads_end="1, 1" dilations="1, 1" auto_pad="explicit" />
			<input>
				<port id="0" precision="FP32">
					<dim>1</dim>
					<dim>64</dim>
					<dim>52</dim>
					<dim>52</dim>
				</port>
				<port id="1" precision="FP32">
					<dim>64</dim>
					<dim>1</dim>
					<dim>1</dim>
					<dim>3</dim>
					<dim>3</dim>
				</port>
			</input>
			<output>
				<port id="2" precision="FP32" names="581">
					<dim>1</dim>
					<dim>64</dim>
					<dim>52</dim>
					<dim>52</dim>
				</port>
			</output>
		</layer>
		<layer id="49" name="Constant_19856" type="Const" version="opset1">
			<data element_type="f32" shape="1, 64, 1, 1" offset="94792" size="256" />
			<output>
				<port id="0" precision="FP32">
					<dim>1</dim>
					<dim>64</dim>
					<dim>1</dim>
					<dim>1</dim>
				</port>
			</output>
		</layer>
		<layer id="50" name="582" type="Add" version="opset1">
			<data auto_broadcast="numpy" />
			<input>
				<port id="0" precision="FP32">
					<dim>1</dim>
					<dim>64</dim>
					<dim>52</dim>
					<dim>52</dim>
				</port>
				<port id="1" precision="FP32">
					<dim>1</dim>
					<dim>64</dim>
					<dim>1</dim>
					<dim>1</dim>
				</port>
			</input>
			<output>
				<port id="2" precision="FP32" names="582">
					<dim>1</dim>
					<dim>64</dim>
					<dim>52</dim>
					<dim>52</dim>
				</port>
			</output>
		</layer>
		<layer id="51" name="583" type="ReLU" version="opset1">
			<input>
				<port id="0" precision="FP32">
					<dim>1</dim>
					<dim>64</dim>
					<dim>52</dim>
					<dim>52</dim>
				</port>
			</input>
			<output>
				<port id="1" precision="FP32" names="583">
					<dim>1</dim>
					<dim>64</dim>
					<dim>52</dim>
					<dim>52</dim>
				</port>
			</output>
		</layer>
		<layer id="52" name="conv2.0.conv2.1.layers.1.conv1.weight" type="Const" version="opset1">
			<data element_type="f32" shape="64, 64, 1, 1" offset="95048" size="16384" />
			<output>
				<port id="0" precision="FP32" names="conv2.0.conv2.1.layers.1.conv1.weight">
					<dim>64</dim>
					<dim>64</dim>
					<dim>1</dim>
					<dim>1</dim>
				</port>
			</output>
		</layer>
		<layer id="53" name="584" type="Convolution" version="opset1">
			<data strides="1, 1" dilations="1, 1" pads_begin="0, 0" pads_end="0, 0" auto_pad="explicit" />
			<input>
				<port id="0" precision="FP32">
					<dim>1</dim>
					<dim>64</dim>
					<dim>52</dim>
					<dim>52</dim>
				</port>
				<port id="1" precision="FP32">
					<dim>64</dim>
					<dim>64</dim>
					<dim>1</dim>
					<dim>1</dim>
				</port>
			</input>
			<output>
				<port id="2" precision="FP32" names="584">
					<dim>1</dim>
					<dim>64</dim>
					<dim>52</dim>
					<dim>52</dim>
				</port>
			</output>
		</layer>
		<layer id="54" name="Multiply_20387" type="Const" version="opset1">
			<data element_type="f32" shape="64, 1, 1, 3, 3" offset="111432" size="2304" />
			<output>
				<port id="0" precision="FP32">
					<dim>64</dim>
					<dim>1</dim>
					<dim>1</dim>
					<dim>3</dim>
					<dim>3</dim>
				</port>
			</output>
		</layer>
		<layer id="55" name="Multiply_19858" type="GroupConvolution" version="opset1">
			<data strides="1, 1" pads_begin="1, 1" pads_end="1, 1" dilations="1, 1" auto_pad="explicit" />
			<input>
				<port id="0" precision="FP32">
					<dim>1</dim>
					<dim>64</dim>
					<dim>52</dim>
					<dim>52</dim>
				</port>
				<port id="1" precision="FP32">
					<dim>64</dim>
					<dim>1</dim>
					<dim>1</dim>
					<dim>3</dim>
					<dim>3</dim>
				</port>
			</input>
			<output>
				<port id="2" precision="FP32" names="585">
					<dim>1</dim>
					<dim>64</dim>
					<dim>52</dim>
					<dim>52</dim>
				</port>
			</output>
		</layer>
		<layer id="56" name="Constant_19863" type="Const" version="opset1">
			<data element_type="f32" shape="1, 64, 1, 1" offset="113736" size="256" />
			<output>
				<port id="0" precision="FP32">
					<dim>1</dim>
					<dim>64</dim>
					<dim>1</dim>
					<dim>1</dim>
				</port>
			</output>
		</layer>
		<layer id="57" name="586" type="Add" version="opset1">
			<data auto_broadcast="numpy" />
			<input>
				<port id="0" precision="FP32">
					<dim>1</dim>
					<dim>64</dim>
					<dim>52</dim>
					<dim>52</dim>
				</port>
				<port id="1" precision="FP32">
					<dim>1</dim>
					<dim>64</dim>
					<dim>1</dim>
					<dim>1</dim>
				</port>
			</input>
			<output>
				<port id="2" precision="FP32" names="586">
					<dim>1</dim>
					<dim>64</dim>
					<dim>52</dim>
					<dim>52</dim>
				</port>
			</output>
		</layer>
		<layer id="58" name="587" type="ReLU" version="opset1">
			<input>
				<port id="0" precision="FP32">
					<dim>1</dim>
					<dim>64</dim>
					<dim>52</dim>
					<dim>52</dim>
				</port>
			</input>
			<output>
				<port id="1" precision="FP32" names="587">
					<dim>1</dim>
					<dim>64</dim>
					<dim>52</dim>
					<dim>52</dim>
				</port>
			</output>
		</layer>
		<layer id="59" name="Range_844" type="Const" version="opset1">
			<data element_type="i64" shape="2" offset="16" size="16" />
			<output>
				<port id="0" precision="I64">
					<dim>2</dim>
				</port>
			</output>
		</layer>
		<layer id="60" name="588" type="ReduceMean" version="opset1">
			<data keep_dims="true" />
			<input>
				<port id="0" precision="FP32">
					<dim>1</dim>
					<dim>64</dim>
					<dim>52</dim>
					<dim>52</dim>
				</port>
				<port id="1" precision="I64">
					<dim>2</dim>
				</port>
			</input>
			<output>
				<port id="2" precision="FP32" names="588">
					<dim>1</dim>
					<dim>64</dim>
					<dim>1</dim>
					<dim>1</dim>
				</port>
			</output>
		</layer>
		<layer id="61" name="589/WithoutBiases" type="Convolution" version="opset1">
			<data strides="1, 1" dilations="1, 1" pads_begin="0, 0" pads_end="0, 0" auto_pad="explicit" />
			<input>
				<port id="0" precision="FP32">
					<dim>1</dim>
					<dim>64</dim>
					<dim>1</dim>
					<dim>1</dim>
				</port>
				<port id="1" precision="FP32">
					<dim>4</dim>
					<dim>64</dim>
					<dim>1</dim>
					<dim>1</dim>
				</port>
			</input>
			<output>
				<port id="2" precision="FP32">
					<dim>1</dim>
					<dim>4</dim>
					<dim>1</dim>
					<dim>1</dim>
				</port>
			</output>
		</layer>
		<layer id="62" name="Reshape_862" type="Const" version="opset1">
			<data element_type="f32" shape="1, 4, 1, 1" offset="74808" size="16" />
			<output>
				<port id="0" precision="FP32">
					<dim>1</dim>
					<dim>4</dim>
					<dim>1</dim>
					<dim>1</dim>
				</port>
			</output>
		</layer>
		<layer id="63" name="589" type="Add" version="opset1">
			<data auto_broadcast="numpy" />
			<input>
				<port id="0" precision="FP32">
					<dim>1</dim>
					<dim>4</dim>
					<dim>1</dim>
					<dim>1</dim>
				</port>
				<port id="1" precision="FP32">
					<dim>1</dim>
					<dim>4</dim>
					<dim>1</dim>
					<dim>1</dim>
				</port>
			</input>
			<output>
				<port id="2" precision="FP32" names="589">
					<dim>1</dim>
					<dim>4</dim>
					<dim>1</dim>
					<dim>1</dim>
				</port>
			</output>
		</layer>
		<layer id="64" name="590" type="ReLU" version="opset1">
			<input>
				<port id="0" precision="FP32">
					<dim>1</dim>
					<dim>4</dim>
					<dim>1</dim>
					<dim>1</dim>
				</port>
			</input>
			<output>
				<port id="1" precision="FP32" names="590">
					<dim>1</dim>
					<dim>4</dim>
					<dim>1</dim>
					<dim>1</dim>
				</port>
			</output>
		</layer>
		<layer id="65" name="591/WithoutBiases" type="Convolution" version="opset1">
			<data strides="1, 1" dilations="1, 1" pads_begin="0, 0" pads_end="0, 0" auto_pad="explicit" />
			<input>
				<port id="0" precision="FP32">
					<dim>1</dim>
					<dim>4</dim>
					<dim>1</dim>
					<dim>1</dim>
				</port>
				<port id="1" precision="FP32">
					<dim>64</dim>
					<dim>4</dim>
					<dim>1</dim>
					<dim>1</dim>
				</port>
			</input>
			<output>
				<port id="2" precision="FP32">
					<dim>1</dim>
					<dim>64</dim>
					<dim>1</dim>
					<dim>1</dim>
				</port>
			</output>
		</layer>
		<layer id="66" name="Reshape_879" type="Const" version="opset1">
			<data element_type="f32" shape="1, 64, 1, 1" offset="75848" size="256" />
			<output>
				<port id="0" precision="FP32">
					<dim>1</dim>
					<dim>64</dim>
					<dim>1</dim>
					<dim>1</dim>
				</port>
			</output>
		</layer>
		<layer id="67" name="591" type="Add" version="opset1">
			<data auto_broadcast="numpy" />
			<input>
				<port id="0" precision="FP32">
					<dim>1</dim>
					<dim>64</dim>
					<dim>1</dim>
					<dim>1</dim>
				</port>
				<port id="1" precision="FP32">
					<dim>1</dim>
					<dim>64</dim>
					<dim>1</dim>
					<dim>1</dim>
				</port>
			</input>
			<output>
				<port id="2" precision="FP32" names="591">
					<dim>1</dim>
					<dim>64</dim>
					<dim>1</dim>
					<dim>1</dim>
				</port>
			</output>
		</layer>
		<layer id="68" name="592" type="Sigmoid" version="opset1">
			<input>
				<port id="0" precision="FP32">
					<dim>1</dim>
					<dim>64</dim>
					<dim>1</dim>
					<dim>1</dim>
				</port>
			</input>
			<output>
				<port id="1" precision="FP32" names="592">
					<dim>1</dim>
					<dim>64</dim>
					<dim>1</dim>
					<dim>1</dim>
				</port>
			</output>
		</layer>
		<layer id="69" name="593" type="Multiply" version="opset1">
			<data auto_broadcast="numpy" />
			<input>
				<port id="0" precision="FP32">
					<dim>1</dim>
					<dim>64</dim>
					<dim>52</dim>
					<dim>52</dim>
				</port>
				<port id="1" precision="FP32">
					<dim>1</dim>
					<dim>64</dim>
					<dim>1</dim>
					<dim>1</dim>
				</port>
			</input>
			<output>
				<port id="2" precision="FP32" names="593">
					<dim>1</dim>
					<dim>64</dim>
					<dim>52</dim>
					<dim>52</dim>
				</port>
			</output>
		</layer>
		<layer id="70" name="594" type="Add" version="opset1">
			<data auto_broadcast="numpy" />
			<input>
				<port id="0" precision="FP32">
					<dim>1</dim>
					<dim>64</dim>
					<dim>52</dim>
					<dim>52</dim>
				</port>
				<port id="1" precision="FP32">
					<dim>1</dim>
					<dim>64</dim>
					<dim>52</dim>
					<dim>52</dim>
				</port>
			</input>
			<output>
				<port id="2" precision="FP32" names="594">
					<dim>1</dim>
					<dim>64</dim>
					<dim>52</dim>
					<dim>52</dim>
				</port>
			</output>
		</layer>
		<layer id="71" name="conv2.0.conv2.2.layers.0.conv1.weight" type="Const" version="opset1">
			<data element_type="f32" shape="64, 64, 1, 1" offset="113992" size="16384" />
			<output>
				<port id="0" precision="FP32" names="conv2.0.conv2.2.layers.0.conv1.weight">
					<dim>64</dim>
					<dim>64</dim>
					<dim>1</dim>
					<dim>1</dim>
				</port>
			</output>
		</layer>
		<layer id="72" name="595" type="Convolution" version="opset1">
			<data strides="1, 1" dilations="1, 1" pads_begin="0, 0" pads_end="0, 0" auto_pad="explicit" />
			<input>
				<port id="0" precision="FP32">
					<dim>1</dim>
					<dim>64</dim>
					<dim>52</dim>
					<dim>52</dim>
				</port>
				<port id="1" precision="FP32">
					<dim>64</dim>
					<dim>64</dim>
					<dim>1</dim>
					<dim>1</dim>
				</port>
			</input>
			<output>
				<port id="2" precision="FP32" names="595">
					<dim>1</dim>
					<dim>64</dim>
					<dim>52</dim>
					<dim>52</dim>
				</port>
			</output>
		</layer>
		<layer id="73" name="Multiply_20390" type="Const" version="opset1">
			<data element_type="f32" shape="64, 1, 1, 3, 3" offset="130376" size="2304" />
			<output>
				<port id="0" precision="FP32">
					<dim>64</dim>
					<dim>1</dim>
					<dim>1</dim>
					<dim>3</dim>
					<dim>3</dim>
				</port>
			</output>
		</layer>
		<layer id="74" name="Multiply_19865" type="GroupConvolution" version="opset1">
			<data strides="1, 1" pads_begin="1, 1" pads_end="1, 1" dilations="1, 1" auto_pad="explicit" />
			<input>
				<port id="0" precision="FP32">
					<dim>1</dim>
					<dim>64</dim>
					<dim>52</dim>
					<dim>52</dim>
				</port>
				<port id="1" precision="FP32">
					<dim>64</dim>
					<dim>1</dim>
					<dim>1</dim>
					<dim>3</dim>
					<dim>3</dim>
				</port>
			</input>
			<output>
				<port id="2" precision="FP32" names="596">
					<dim>1</dim>
					<dim>64</dim>
					<dim>52</dim>
					<dim>52</dim>
				</port>
			</output>
		</layer>
		<layer id="75" name="Constant_19870" type="Const" version="opset1">
			<data element_type="f32" shape="1, 64, 1, 1" offset="132680" size="256" />
			<output>
				<port id="0" precision="FP32">
					<dim>1</dim>
					<dim>64</dim>
					<dim>1</dim>
					<dim>1</dim>
				</port>
			</output>
		</layer>
		<layer id="76" name="597" type="Add" version="opset1">
			<data auto_broadcast="numpy" />
			<input>
				<port id="0" precision="FP32">
					<dim>1</dim>
					<dim>64</dim>
					<dim>52</dim>
					<dim>52</dim>
				</port>
				<port id="1" precision="FP32">
					<dim>1</dim>
					<dim>64</dim>
					<dim>1</dim>
					<dim>1</dim>
				</port>
			</input>
			<output>
				<port id="2" precision="FP32" names="597">
					<dim>1</dim>
					<dim>64</dim>
					<dim>52</dim>
					<dim>52</dim>
				</port>
			</output>
		</layer>
		<layer id="77" name="598" type="ReLU" version="opset1">
			<input>
				<port id="0" precision="FP32">
					<dim>1</dim>
					<dim>64</dim>
					<dim>52</dim>
					<dim>52</dim>
				</port>
			</input>
			<output>
				<port id="1" precision="FP32" names="598">
					<dim>1</dim>
					<dim>64</dim>
					<dim>52</dim>
					<dim>52</dim>
				</port>
			</output>
		</layer>
		<layer id="78" name="conv2.0.conv2.2.layers.1.conv1.weight" type="Const" version="opset1">
			<data element_type="f32" shape="64, 64, 1, 1" offset="132936" size="16384" />
			<output>
				<port id="0" precision="FP32" names="conv2.0.conv2.2.layers.1.conv1.weight">
					<dim>64</dim>
					<dim>64</dim>
					<dim>1</dim>
					<dim>1</dim>
				</port>
			</output>
		</layer>
		<layer id="79" name="599" type="Convolution" version="opset1">
			<data strides="1, 1" dilations="1, 1" pads_begin="0, 0" pads_end="0, 0" auto_pad="explicit" />
			<input>
				<port id="0" precision="FP32">
					<dim>1</dim>
					<dim>64</dim>
					<dim>52</dim>
					<dim>52</dim>
				</port>
				<port id="1" precision="FP32">
					<dim>64</dim>
					<dim>64</dim>
					<dim>1</dim>
					<dim>1</dim>
				</port>
			</input>
			<output>
				<port id="2" precision="FP32" names="599">
					<dim>1</dim>
					<dim>64</dim>
					<dim>52</dim>
					<dim>52</dim>
				</port>
			</output>
		</layer>
		<layer id="80" name="Multiply_20393" type="Const" version="opset1">
			<data element_type="f32" shape="64, 1, 1, 3, 3" offset="149320" size="2304" />
			<output>
				<port id="0" precision="FP32">
					<dim>64</dim>
					<dim>1</dim>
					<dim>1</dim>
					<dim>3</dim>
					<dim>3</dim>
				</port>
			</output>
		</layer>
		<layer id="81" name="Multiply_19872" type="GroupConvolution" version="opset1">
			<data strides="1, 1" pads_begin="1, 1" pads_end="1, 1" dilations="1, 1" auto_pad="explicit" />
			<input>
				<port id="0" precision="FP32">
					<dim>1</dim>
					<dim>64</dim>
					<dim>52</dim>
					<dim>52</dim>
				</port>
				<port id="1" precision="FP32">
					<dim>64</dim>
					<dim>1</dim>
					<dim>1</dim>
					<dim>3</dim>
					<dim>3</dim>
				</port>
			</input>
			<output>
				<port id="2" precision="FP32" names="600">
					<dim>1</dim>
					<dim>64</dim>
					<dim>52</dim>
					<dim>52</dim>
				</port>
			</output>
		</layer>
		<layer id="82" name="Constant_19877" type="Const" version="opset1">
			<data element_type="f32" shape="1, 64, 1, 1" offset="151624" size="256" />
			<output>
				<port id="0" precision="FP32">
					<dim>1</dim>
					<dim>64</dim>
					<dim>1</dim>
					<dim>1</dim>
				</port>
			</output>
		</layer>
		<layer id="83" name="601" type="Add" version="opset1">
			<data auto_broadcast="numpy" />
			<input>
				<port id="0" precision="FP32">
					<dim>1</dim>
					<dim>64</dim>
					<dim>52</dim>
					<dim>52</dim>
				</port>
				<port id="1" precision="FP32">
					<dim>1</dim>
					<dim>64</dim>
					<dim>1</dim>
					<dim>1</dim>
				</port>
			</input>
			<output>
				<port id="2" precision="FP32" names="601">
					<dim>1</dim>
					<dim>64</dim>
					<dim>52</dim>
					<dim>52</dim>
				</port>
			</output>
		</layer>
		<layer id="84" name="602" type="ReLU" version="opset1">
			<input>
				<port id="0" precision="FP32">
					<dim>1</dim>
					<dim>64</dim>
					<dim>52</dim>
					<dim>52</dim>
				</port>
			</input>
			<output>
				<port id="1" precision="FP32" names="602">
					<dim>1</dim>
					<dim>64</dim>
					<dim>52</dim>
					<dim>52</dim>
				</port>
			</output>
		</layer>
		<layer id="85" name="conv2.0.conv2.2.layers.2.conv1.weight" type="Const" version="opset1">
			<data element_type="f32" shape="64, 64, 1, 1" offset="151880" size="16384" />
			<output>
				<port id="0" precision="FP32" names="conv2.0.conv2.2.layers.2.conv1.weight">
					<dim>64</dim>
					<dim>64</dim>
					<dim>1</dim>
					<dim>1</dim>
				</port>
			</output>
		</layer>
		<layer id="86" name="603" type="Convolution" version="opset1">
			<data strides="1, 1" dilations="1, 1" pads_begin="0, 0" pads_end="0, 0" auto_pad="explicit" />
			<input>
				<port id="0" precision="FP32">
					<dim>1</dim>
					<dim>64</dim>
					<dim>52</dim>
					<dim>52</dim>
				</port>
				<port id="1" precision="FP32">
					<dim>64</dim>
					<dim>64</dim>
					<dim>1</dim>
					<dim>1</dim>
				</port>
			</input>
			<output>
				<port id="2" precision="FP32" names="603">
					<dim>1</dim>
					<dim>64</dim>
					<dim>52</dim>
					<dim>52</dim>
				</port>
			</output>
		</layer>
		<layer id="87" name="Multiply_20396" type="Const" version="opset1">
			<data element_type="f32" shape="64, 1, 1, 3, 3" offset="168264" size="2304" />
			<output>
				<port id="0" precision="FP32">
					<dim>64</dim>
					<dim>1</dim>
					<dim>1</dim>
					<dim>3</dim>
					<dim>3</dim>
				</port>
			</output>
		</layer>
		<layer id="88" name="Multiply_19879" type="GroupConvolution" version="opset1">
			<data strides="1, 1" pads_begin="1, 1" pads_end="1, 1" dilations="1, 1" auto_pad="explicit" />
			<input>
				<port id="0" precision="FP32">
					<dim>1</dim>
					<dim>64</dim>
					<dim>52</dim>
					<dim>52</dim>
				</port>
				<port id="1" precision="FP32">
					<dim>64</dim>
					<dim>1</dim>
					<dim>1</dim>
					<dim>3</dim>
					<dim>3</dim>
				</port>
			</input>
			<output>
				<port id="2" precision="FP32" names="604">
					<dim>1</dim>
					<dim>64</dim>
					<dim>52</dim>
					<dim>52</dim>
				</port>
			</output>
		</layer>
		<layer id="89" name="Constant_19884" type="Const" version="opset1">
			<data element_type="f32" shape="1, 64, 1, 1" offset="170568" size="256" />
			<output>
				<port id="0" precision="FP32">
					<dim>1</dim>
					<dim>64</dim>
					<dim>1</dim>
					<dim>1</dim>
				</port>
			</output>
		</layer>
		<layer id="90" name="605" type="Add" version="opset1">
			<data auto_broadcast="numpy" />
			<input>
				<port id="0" precision="FP32">
					<dim>1</dim>
					<dim>64</dim>
					<dim>52</dim>
					<dim>52</dim>
				</port>
				<port id="1" precision="FP32">
					<dim>1</dim>
					<dim>64</dim>
					<dim>1</dim>
					<dim>1</dim>
				</port>
			</input>
			<output>
				<port id="2" precision="FP32" names="605">
					<dim>1</dim>
					<dim>64</dim>
					<dim>52</dim>
					<dim>52</dim>
				</port>
			</output>
		</layer>
		<layer id="91" name="606" type="ReLU" version="opset1">
			<input>
				<port id="0" precision="FP32">
					<dim>1</dim>
					<dim>64</dim>
					<dim>52</dim>
					<dim>52</dim>
				</port>
			</input>
			<output>
				<port id="1" precision="FP32" names="606">
					<dim>1</dim>
					<dim>64</dim>
					<dim>52</dim>
					<dim>52</dim>
				</port>
			</output>
		</layer>
		<layer id="92" name="Range_1051" type="Const" version="opset1">
			<data element_type="i64" shape="2" offset="16" size="16" />
			<output>
				<port id="0" precision="I64">
					<dim>2</dim>
				</port>
			</output>
		</layer>
		<layer id="93" name="607" type="ReduceMean" version="opset1">
			<data keep_dims="true" />
			<input>
				<port id="0" precision="FP32">
					<dim>1</dim>
					<dim>64</dim>
					<dim>52</dim>
					<dim>52</dim>
				</port>
				<port id="1" precision="I64">
					<dim>2</dim>
				</port>
			</input>
			<output>
				<port id="2" precision="FP32" names="607">
					<dim>1</dim>
					<dim>64</dim>
					<dim>1</dim>
					<dim>1</dim>
				</port>
			</output>
		</layer>
		<layer id="94" name="608/WithoutBiases" type="Convolution" version="opset1">
			<data strides="1, 1" dilations="1, 1" pads_begin="0, 0" pads_end="0, 0" auto_pad="explicit" />
			<input>
				<port id="0" precision="FP32">
					<dim>1</dim>
					<dim>64</dim>
					<dim>1</dim>
					<dim>1</dim>
				</port>
				<port id="1" precision="FP32">
					<dim>4</dim>
					<dim>64</dim>
					<dim>1</dim>
					<dim>1</dim>
				</port>
			</input>
			<output>
				<port id="2" precision="FP32">
					<dim>1</dim>
					<dim>4</dim>
					<dim>1</dim>
					<dim>1</dim>
				</port>
			</output>
		</layer>
		<layer id="95" name="Reshape_1069" type="Const" version="opset1">
			<data element_type="f32" shape="1, 4, 1, 1" offset="74808" size="16" />
			<output>
				<port id="0" precision="FP32">
					<dim>1</dim>
					<dim>4</dim>
					<dim>1</dim>
					<dim>1</dim>
				</port>
			</output>
		</layer>
		<layer id="96" name="608" type="Add" version="opset1">
			<data auto_broadcast="numpy" />
			<input>
				<port id="0" precision="FP32">
					<dim>1</dim>
					<dim>4</dim>
					<dim>1</dim>
					<dim>1</dim>
				</port>
				<port id="1" precision="FP32">
					<dim>1</dim>
					<dim>4</dim>
					<dim>1</dim>
					<dim>1</dim>
				</port>
			</input>
			<output>
				<port id="2" precision="FP32" names="608">
					<dim>1</dim>
					<dim>4</dim>
					<dim>1</dim>
					<dim>1</dim>
				</port>
			</output>
		</layer>
		<layer id="97" name="609" type="ReLU" version="opset1">
			<input>
				<port id="0" precision="FP32">
					<dim>1</dim>
					<dim>4</dim>
					<dim>1</dim>
					<dim>1</dim>
				</port>
			</input>
			<output>
				<port id="1" precision="FP32" names="609">
					<dim>1</dim>
					<dim>4</dim>
					<dim>1</dim>
					<dim>1</dim>
				</port>
			</output>
		</layer>
		<layer id="98" name="610/WithoutBiases" type="Convolution" version="opset1">
			<data strides="1, 1" dilations="1, 1" pads_begin="0, 0" pads_end="0, 0" auto_pad="explicit" />
			<input>
				<port id="0" precision="FP32">
					<dim>1</dim>
					<dim>4</dim>
					<dim>1</dim>
					<dim>1</dim>
				</port>
				<port id="1" precision="FP32">
					<dim>64</dim>
					<dim>4</dim>
					<dim>1</dim>
					<dim>1</dim>
				</port>
			</input>
			<output>
				<port id="2" precision="FP32">
					<dim>1</dim>
					<dim>64</dim>
					<dim>1</dim>
					<dim>1</dim>
				</port>
			</output>
		</layer>
		<layer id="99" name="Reshape_1086" type="Const" version="opset1">
			<data element_type="f32" shape="1, 64, 1, 1" offset="75848" size="256" />
			<output>
				<port id="0" precision="FP32">
					<dim>1</dim>
					<dim>64</dim>
					<dim>1</dim>
					<dim>1</dim>
				</port>
			</output>
		</layer>
		<layer id="100" name="610" type="Add" version="opset1">
			<data auto_broadcast="numpy" />
			<input>
				<port id="0" precision="FP32">
					<dim>1</dim>
					<dim>64</dim>
					<dim>1</dim>
					<dim>1</dim>
				</port>
				<port id="1" precision="FP32">
					<dim>1</dim>
					<dim>64</dim>
					<dim>1</dim>
					<dim>1</dim>
				</port>
			</input>
			<output>
				<port id="2" precision="FP32" names="610">
					<dim>1</dim>
					<dim>64</dim>
					<dim>1</dim>
					<dim>1</dim>
				</port>
			</output>
		</layer>
		<layer id="101" name="611" type="Sigmoid" version="opset1">
			<input>
				<port id="0" precision="FP32">
					<dim>1</dim>
					<dim>64</dim>
					<dim>1</dim>
					<dim>1</dim>
				</port>
			</input>
			<output>
				<port id="1" precision="FP32" names="611">
					<dim>1</dim>
					<dim>64</dim>
					<dim>1</dim>
					<dim>1</dim>
				</port>
			</output>
		</layer>
		<layer id="102" name="612" type="Multiply" version="opset1">
			<data auto_broadcast="numpy" />
			<input>
				<port id="0" precision="FP32">
					<dim>1</dim>
					<dim>64</dim>
					<dim>52</dim>
					<dim>52</dim>
				</port>
				<port id="1" precision="FP32">
					<dim>1</dim>
					<dim>64</dim>
					<dim>1</dim>
					<dim>1</dim>
				</port>
			</input>
			<output>
				<port id="2" precision="FP32" names="612">
					<dim>1</dim>
					<dim>64</dim>
					<dim>52</dim>
					<dim>52</dim>
				</port>
			</output>
		</layer>
		<layer id="103" name="613" type="Add" version="opset1">
			<data auto_broadcast="numpy" />
			<input>
				<port id="0" precision="FP32">
					<dim>1</dim>
					<dim>64</dim>
					<dim>52</dim>
					<dim>52</dim>
				</port>
				<port id="1" precision="FP32">
					<dim>1</dim>
					<dim>64</dim>
					<dim>52</dim>
					<dim>52</dim>
				</port>
			</input>
			<output>
				<port id="2" precision="FP32" names="613">
					<dim>1</dim>
					<dim>64</dim>
					<dim>52</dim>
					<dim>52</dim>
				</port>
			</output>
		</layer>
		<layer id="104" name="conv2.0.conv2.3.layers.0.conv1.weight" type="Const" version="opset1">
			<data element_type="f32" shape="64, 64, 1, 1" offset="170824" size="16384" />
			<output>
				<port id="0" precision="FP32" names="conv2.0.conv2.3.layers.0.conv1.weight">
					<dim>64</dim>
					<dim>64</dim>
					<dim>1</dim>
					<dim>1</dim>
				</port>
			</output>
		</layer>
		<layer id="105" name="614" type="Convolution" version="opset1">
			<data strides="1, 1" dilations="1, 1" pads_begin="0, 0" pads_end="0, 0" auto_pad="explicit" />
			<input>
				<port id="0" precision="FP32">
					<dim>1</dim>
					<dim>64</dim>
					<dim>52</dim>
					<dim>52</dim>
				</port>
				<port id="1" precision="FP32">
					<dim>64</dim>
					<dim>64</dim>
					<dim>1</dim>
					<dim>1</dim>
				</port>
			</input>
			<output>
				<port id="2" precision="FP32" names="614">
					<dim>1</dim>
					<dim>64</dim>
					<dim>52</dim>
					<dim>52</dim>
				</port>
			</output>
		</layer>
		<layer id="106" name="Multiply_20399" type="Const" version="opset1">
			<data element_type="f32" shape="64, 1, 1, 3, 3" offset="187208" size="2304" />
			<output>
				<port id="0" precision="FP32">
					<dim>64</dim>
					<dim>1</dim>
					<dim>1</dim>
					<dim>3</dim>
					<dim>3</dim>
				</port>
			</output>
		</layer>
		<layer id="107" name="Multiply_19886" type="GroupConvolution" version="opset1">
			<data strides="1, 1" pads_begin="1, 1" pads_end="1, 1" dilations="1, 1" auto_pad="explicit" />
			<input>
				<port id="0" precision="FP32">
					<dim>1</dim>
					<dim>64</dim>
					<dim>52</dim>
					<dim>52</dim>
				</port>
				<port id="1" precision="FP32">
					<dim>64</dim>
					<dim>1</dim>
					<dim>1</dim>
					<dim>3</dim>
					<dim>3</dim>
				</port>
			</input>
			<output>
				<port id="2" precision="FP32" names="615">
					<dim>1</dim>
					<dim>64</dim>
					<dim>52</dim>
					<dim>52</dim>
				</port>
			</output>
		</layer>
		<layer id="108" name="Constant_19891" type="Const" version="opset1">
			<data element_type="f32" shape="1, 64, 1, 1" offset="189512" size="256" />
			<output>
				<port id="0" precision="FP32">
					<dim>1</dim>
					<dim>64</dim>
					<dim>1</dim>
					<dim>1</dim>
				</port>
			</output>
		</layer>
		<layer id="109" name="616" type="Add" version="opset1">
			<data auto_broadcast="numpy" />
			<input>
				<port id="0" precision="FP32">
					<dim>1</dim>
					<dim>64</dim>
					<dim>52</dim>
					<dim>52</dim>
				</port>
				<port id="1" precision="FP32">
					<dim>1</dim>
					<dim>64</dim>
					<dim>1</dim>
					<dim>1</dim>
				</port>
			</input>
			<output>
				<port id="2" precision="FP32" names="616">
					<dim>1</dim>
					<dim>64</dim>
					<dim>52</dim>
					<dim>52</dim>
				</port>
			</output>
		</layer>
		<layer id="110" name="617" type="ReLU" version="opset1">
			<input>
				<port id="0" precision="FP32">
					<dim>1</dim>
					<dim>64</dim>
					<dim>52</dim>
					<dim>52</dim>
				</port>
			</input>
			<output>
				<port id="1" precision="FP32" names="617">
					<dim>1</dim>
					<dim>64</dim>
					<dim>52</dim>
					<dim>52</dim>
				</port>
			</output>
		</layer>
		<layer id="111" name="conv2.0.conv2.3.layers.1.conv1.weight" type="Const" version="opset1">
			<data element_type="f32" shape="64, 64, 1, 1" offset="189768" size="16384" />
			<output>
				<port id="0" precision="FP32" names="conv2.0.conv2.3.layers.1.conv1.weight">
					<dim>64</dim>
					<dim>64</dim>
					<dim>1</dim>
					<dim>1</dim>
				</port>
			</output>
		</layer>
		<layer id="112" name="618" type="Convolution" version="opset1">
			<data strides="1, 1" dilations="1, 1" pads_begin="0, 0" pads_end="0, 0" auto_pad="explicit" />
			<input>
				<port id="0" precision="FP32">
					<dim>1</dim>
					<dim>64</dim>
					<dim>52</dim>
					<dim>52</dim>
				</port>
				<port id="1" precision="FP32">
					<dim>64</dim>
					<dim>64</dim>
					<dim>1</dim>
					<dim>1</dim>
				</port>
			</input>
			<output>
				<port id="2" precision="FP32" names="618">
					<dim>1</dim>
					<dim>64</dim>
					<dim>52</dim>
					<dim>52</dim>
				</port>
			</output>
		</layer>
		<layer id="113" name="Multiply_20402" type="Const" version="opset1">
			<data element_type="f32" shape="64, 1, 1, 3, 3" offset="206152" size="2304" />
			<output>
				<port id="0" precision="FP32">
					<dim>64</dim>
					<dim>1</dim>
					<dim>1</dim>
					<dim>3</dim>
					<dim>3</dim>
				</port>
			</output>
		</layer>
		<layer id="114" name="Multiply_19893" type="GroupConvolution" version="opset1">
			<data strides="1, 1" pads_begin="1, 1" pads_end="1, 1" dilations="1, 1" auto_pad="explicit" />
			<input>
				<port id="0" precision="FP32">
					<dim>1</dim>
					<dim>64</dim>
					<dim>52</dim>
					<dim>52</dim>
				</port>
				<port id="1" precision="FP32">
					<dim>64</dim>
					<dim>1</dim>
					<dim>1</dim>
					<dim>3</dim>
					<dim>3</dim>
				</port>
			</input>
			<output>
				<port id="2" precision="FP32" names="619">
					<dim>1</dim>
					<dim>64</dim>
					<dim>52</dim>
					<dim>52</dim>
				</port>
			</output>
		</layer>
		<layer id="115" name="Constant_19898" type="Const" version="opset1">
			<data element_type="f32" shape="1, 64, 1, 1" offset="208456" size="256" />
			<output>
				<port id="0" precision="FP32">
					<dim>1</dim>
					<dim>64</dim>
					<dim>1</dim>
					<dim>1</dim>
				</port>
			</output>
		</layer>
		<layer id="116" name="620" type="Add" version="opset1">
			<data auto_broadcast="numpy" />
			<input>
				<port id="0" precision="FP32">
					<dim>1</dim>
					<dim>64</dim>
					<dim>52</dim>
					<dim>52</dim>
				</port>
				<port id="1" precision="FP32">
					<dim>1</dim>
					<dim>64</dim>
					<dim>1</dim>
					<dim>1</dim>
				</port>
			</input>
			<output>
				<port id="2" precision="FP32" names="620">
					<dim>1</dim>
					<dim>64</dim>
					<dim>52</dim>
					<dim>52</dim>
				</port>
			</output>
		</layer>
		<layer id="117" name="621" type="ReLU" version="opset1">
			<input>
				<port id="0" precision="FP32">
					<dim>1</dim>
					<dim>64</dim>
					<dim>52</dim>
					<dim>52</dim>
				</port>
			</input>
			<output>
				<port id="1" precision="FP32" names="621">
					<dim>1</dim>
					<dim>64</dim>
					<dim>52</dim>
					<dim>52</dim>
				</port>
			</output>
		</layer>
		<layer id="118" name="conv2.0.conv2.3.layers.2.conv1.weight" type="Const" version="opset1">
			<data element_type="f32" shape="64, 64, 1, 1" offset="208712" size="16384" />
			<output>
				<port id="0" precision="FP32" names="conv2.0.conv2.3.layers.2.conv1.weight">
					<dim>64</dim>
					<dim>64</dim>
					<dim>1</dim>
					<dim>1</dim>
				</port>
			</output>
		</layer>
		<layer id="119" name="622" type="Convolution" version="opset1">
			<data strides="1, 1" dilations="1, 1" pads_begin="0, 0" pads_end="0, 0" auto_pad="explicit" />
			<input>
				<port id="0" precision="FP32">
					<dim>1</dim>
					<dim>64</dim>
					<dim>52</dim>
					<dim>52</dim>
				</port>
				<port id="1" precision="FP32">
					<dim>64</dim>
					<dim>64</dim>
					<dim>1</dim>
					<dim>1</dim>
				</port>
			</input>
			<output>
				<port id="2" precision="FP32" names="622">
					<dim>1</dim>
					<dim>64</dim>
					<dim>52</dim>
					<dim>52</dim>
				</port>
			</output>
		</layer>
		<layer id="120" name="Multiply_20405" type="Const" version="opset1">
			<data element_type="f32" shape="64, 1, 1, 3, 3" offset="225096" size="2304" />
			<output>
				<port id="0" precision="FP32">
					<dim>64</dim>
					<dim>1</dim>
					<dim>1</dim>
					<dim>3</dim>
					<dim>3</dim>
				</port>
			</output>
		</layer>
		<layer id="121" name="Multiply_19900" type="GroupConvolution" version="opset1">
			<data strides="1, 1" pads_begin="1, 1" pads_end="1, 1" dilations="1, 1" auto_pad="explicit" />
			<input>
				<port id="0" precision="FP32">
					<dim>1</dim>
					<dim>64</dim>
					<dim>52</dim>
					<dim>52</dim>
				</port>
				<port id="1" precision="FP32">
					<dim>64</dim>
					<dim>1</dim>
					<dim>1</dim>
					<dim>3</dim>
					<dim>3</dim>
				</port>
			</input>
			<output>
				<port id="2" precision="FP32" names="623">
					<dim>1</dim>
					<dim>64</dim>
					<dim>52</dim>
					<dim>52</dim>
				</port>
			</output>
		</layer>
		<layer id="122" name="Constant_19905" type="Const" version="opset1">
			<data element_type="f32" shape="1, 64, 1, 1" offset="227400" size="256" />
			<output>
				<port id="0" precision="FP32">
					<dim>1</dim>
					<dim>64</dim>
					<dim>1</dim>
					<dim>1</dim>
				</port>
			</output>
		</layer>
		<layer id="123" name="624" type="Add" version="opset1">
			<data auto_broadcast="numpy" />
			<input>
				<port id="0" precision="FP32">
					<dim>1</dim>
					<dim>64</dim>
					<dim>52</dim>
					<dim>52</dim>
				</port>
				<port id="1" precision="FP32">
					<dim>1</dim>
					<dim>64</dim>
					<dim>1</dim>
					<dim>1</dim>
				</port>
			</input>
			<output>
				<port id="2" precision="FP32" names="624">
					<dim>1</dim>
					<dim>64</dim>
					<dim>52</dim>
					<dim>52</dim>
				</port>
			</output>
		</layer>
		<layer id="124" name="625" type="ReLU" version="opset1">
			<input>
				<port id="0" precision="FP32">
					<dim>1</dim>
					<dim>64</dim>
					<dim>52</dim>
					<dim>52</dim>
				</port>
			</input>
			<output>
				<port id="1" precision="FP32" names="625">
					<dim>1</dim>
					<dim>64</dim>
					<dim>52</dim>
					<dim>52</dim>
				</port>
			</output>
		</layer>
		<layer id="125" name="conv2.0.conv2.3.layers.3.conv1.weight" type="Const" version="opset1">
			<data element_type="f32" shape="64, 64, 1, 1" offset="227656" size="16384" />
			<output>
				<port id="0" precision="FP32" names="conv2.0.conv2.3.layers.3.conv1.weight">
					<dim>64</dim>
					<dim>64</dim>
					<dim>1</dim>
					<dim>1</dim>
				</port>
			</output>
		</layer>
		<layer id="126" name="626" type="Convolution" version="opset1">
			<data strides="1, 1" dilations="1, 1" pads_begin="0, 0" pads_end="0, 0" auto_pad="explicit" />
			<input>
				<port id="0" precision="FP32">
					<dim>1</dim>
					<dim>64</dim>
					<dim>52</dim>
					<dim>52</dim>
				</port>
				<port id="1" precision="FP32">
					<dim>64</dim>
					<dim>64</dim>
					<dim>1</dim>
					<dim>1</dim>
				</port>
			</input>
			<output>
				<port id="2" precision="FP32" names="626">
					<dim>1</dim>
					<dim>64</dim>
					<dim>52</dim>
					<dim>52</dim>
				</port>
			</output>
		</layer>
		<layer id="127" name="Multiply_20408" type="Const" version="opset1">
			<data element_type="f32" shape="64, 1, 1, 3, 3" offset="244040" size="2304" />
			<output>
				<port id="0" precision="FP32">
					<dim>64</dim>
					<dim>1</dim>
					<dim>1</dim>
					<dim>3</dim>
					<dim>3</dim>
				</port>
			</output>
		</layer>
		<layer id="128" name="Multiply_19907" type="GroupConvolution" version="opset1">
			<data strides="1, 1" pads_begin="1, 1" pads_end="1, 1" dilations="1, 1" auto_pad="explicit" />
			<input>
				<port id="0" precision="FP32">
					<dim>1</dim>
					<dim>64</dim>
					<dim>52</dim>
					<dim>52</dim>
				</port>
				<port id="1" precision="FP32">
					<dim>64</dim>
					<dim>1</dim>
					<dim>1</dim>
					<dim>3</dim>
					<dim>3</dim>
				</port>
			</input>
			<output>
				<port id="2" precision="FP32" names="627">
					<dim>1</dim>
					<dim>64</dim>
					<dim>52</dim>
					<dim>52</dim>
				</port>
			</output>
		</layer>
		<layer id="129" name="Constant_19912" type="Const" version="opset1">
			<data element_type="f32" shape="1, 64, 1, 1" offset="246344" size="256" />
			<output>
				<port id="0" precision="FP32">
					<dim>1</dim>
					<dim>64</dim>
					<dim>1</dim>
					<dim>1</dim>
				</port>
			</output>
		</layer>
		<layer id="130" name="628" type="Add" version="opset1">
			<data auto_broadcast="numpy" />
			<input>
				<port id="0" precision="FP32">
					<dim>1</dim>
					<dim>64</dim>
					<dim>52</dim>
					<dim>52</dim>
				</port>
				<port id="1" precision="FP32">
					<dim>1</dim>
					<dim>64</dim>
					<dim>1</dim>
					<dim>1</dim>
				</port>
			</input>
			<output>
				<port id="2" precision="FP32" names="628">
					<dim>1</dim>
					<dim>64</dim>
					<dim>52</dim>
					<dim>52</dim>
				</port>
			</output>
		</layer>
		<layer id="131" name="629" type="ReLU" version="opset1">
			<input>
				<port id="0" precision="FP32">
					<dim>1</dim>
					<dim>64</dim>
					<dim>52</dim>
					<dim>52</dim>
				</port>
			</input>
			<output>
				<port id="1" precision="FP32" names="629">
					<dim>1</dim>
					<dim>64</dim>
					<dim>52</dim>
					<dim>52</dim>
				</port>
			</output>
		</layer>
		<layer id="132" name="Range_1311" type="Const" version="opset1">
			<data element_type="i64" shape="2" offset="16" size="16" />
			<output>
				<port id="0" precision="I64">
					<dim>2</dim>
				</port>
			</output>
		</layer>
		<layer id="133" name="630" type="ReduceMean" version="opset1">
			<data keep_dims="true" />
			<input>
				<port id="0" precision="FP32">
					<dim>1</dim>
					<dim>64</dim>
					<dim>52</dim>
					<dim>52</dim>
				</port>
				<port id="1" precision="I64">
					<dim>2</dim>
				</port>
			</input>
			<output>
				<port id="2" precision="FP32" names="630">
					<dim>1</dim>
					<dim>64</dim>
					<dim>1</dim>
					<dim>1</dim>
				</port>
			</output>
		</layer>
		<layer id="134" name="631/WithoutBiases" type="Convolution" version="opset1">
			<data strides="1, 1" dilations="1, 1" pads_begin="0, 0" pads_end="0, 0" auto_pad="explicit" />
			<input>
				<port id="0" precision="FP32">
					<dim>1</dim>
					<dim>64</dim>
					<dim>1</dim>
					<dim>1</dim>
				</port>
				<port id="1" precision="FP32">
					<dim>4</dim>
					<dim>64</dim>
					<dim>1</dim>
					<dim>1</dim>
				</port>
			</input>
			<output>
				<port id="2" precision="FP32">
					<dim>1</dim>
					<dim>4</dim>
					<dim>1</dim>
					<dim>1</dim>
				</port>
			</output>
		</layer>
		<layer id="135" name="Reshape_1329" type="Const" version="opset1">
			<data element_type="f32" shape="1, 4, 1, 1" offset="74808" size="16" />
			<output>
				<port id="0" precision="FP32">
					<dim>1</dim>
					<dim>4</dim>
					<dim>1</dim>
					<dim>1</dim>
				</port>
			</output>
		</layer>
		<layer id="136" name="631" type="Add" version="opset1">
			<data auto_broadcast="numpy" />
			<input>
				<port id="0" precision="FP32">
					<dim>1</dim>
					<dim>4</dim>
					<dim>1</dim>
					<dim>1</dim>
				</port>
				<port id="1" precision="FP32">
					<dim>1</dim>
					<dim>4</dim>
					<dim>1</dim>
					<dim>1</dim>
				</port>
			</input>
			<output>
				<port id="2" precision="FP32" names="631">
					<dim>1</dim>
					<dim>4</dim>
					<dim>1</dim>
					<dim>1</dim>
				</port>
			</output>
		</layer>
		<layer id="137" name="632" type="ReLU" version="opset1">
			<input>
				<port id="0" precision="FP32">
					<dim>1</dim>
					<dim>4</dim>
					<dim>1</dim>
					<dim>1</dim>
				</port>
			</input>
			<output>
				<port id="1" precision="FP32" names="632">
					<dim>1</dim>
					<dim>4</dim>
					<dim>1</dim>
					<dim>1</dim>
				</port>
			</output>
		</layer>
		<layer id="138" name="633/WithoutBiases" type="Convolution" version="opset1">
			<data strides="1, 1" dilations="1, 1" pads_begin="0, 0" pads_end="0, 0" auto_pad="explicit" />
			<input>
				<port id="0" precision="FP32">
					<dim>1</dim>
					<dim>4</dim>
					<dim>1</dim>
					<dim>1</dim>
				</port>
				<port id="1" precision="FP32">
					<dim>64</dim>
					<dim>4</dim>
					<dim>1</dim>
					<dim>1</dim>
				</port>
			</input>
			<output>
				<port id="2" precision="FP32">
					<dim>1</dim>
					<dim>64</dim>
					<dim>1</dim>
					<dim>1</dim>
				</port>
			</output>
		</layer>
		<layer id="139" name="Reshape_1346" type="Const" version="opset1">
			<data element_type="f32" shape="1, 64, 1, 1" offset="75848" size="256" />
			<output>
				<port id="0" precision="FP32">
					<dim>1</dim>
					<dim>64</dim>
					<dim>1</dim>
					<dim>1</dim>
				</port>
			</output>
		</layer>
		<layer id="140" name="633" type="Add" version="opset1">
			<data auto_broadcast="numpy" />
			<input>
				<port id="0" precision="FP32">
					<dim>1</dim>
					<dim>64</dim>
					<dim>1</dim>
					<dim>1</dim>
				</port>
				<port id="1" precision="FP32">
					<dim>1</dim>
					<dim>64</dim>
					<dim>1</dim>
					<dim>1</dim>
				</port>
			</input>
			<output>
				<port id="2" precision="FP32" names="633">
					<dim>1</dim>
					<dim>64</dim>
					<dim>1</dim>
					<dim>1</dim>
				</port>
			</output>
		</layer>
		<layer id="141" name="634" type="Sigmoid" version="opset1">
			<input>
				<port id="0" precision="FP32">
					<dim>1</dim>
					<dim>64</dim>
					<dim>1</dim>
					<dim>1</dim>
				</port>
			</input>
			<output>
				<port id="1" precision="FP32" names="634">
					<dim>1</dim>
					<dim>64</dim>
					<dim>1</dim>
					<dim>1</dim>
				</port>
			</output>
		</layer>
		<layer id="142" name="635" type="Multiply" version="opset1">
			<data auto_broadcast="numpy" />
			<input>
				<port id="0" precision="FP32">
					<dim>1</dim>
					<dim>64</dim>
					<dim>52</dim>
					<dim>52</dim>
				</port>
				<port id="1" precision="FP32">
					<dim>1</dim>
					<dim>64</dim>
					<dim>1</dim>
					<dim>1</dim>
				</port>
			</input>
			<output>
				<port id="2" precision="FP32" names="635">
					<dim>1</dim>
					<dim>64</dim>
					<dim>52</dim>
					<dim>52</dim>
				</port>
			</output>
		</layer>
		<layer id="143" name="636" type="Add" version="opset1">
			<data auto_broadcast="numpy" />
			<input>
				<port id="0" precision="FP32">
					<dim>1</dim>
					<dim>64</dim>
					<dim>52</dim>
					<dim>52</dim>
				</port>
				<port id="1" precision="FP32">
					<dim>1</dim>
					<dim>64</dim>
					<dim>52</dim>
					<dim>52</dim>
				</port>
			</input>
			<output>
				<port id="2" precision="FP32" names="636">
					<dim>1</dim>
					<dim>64</dim>
					<dim>52</dim>
					<dim>52</dim>
				</port>
			</output>
		</layer>
		<layer id="144" name="conv2.0.conv3.conv.weight" type="Const" version="opset1">
			<data element_type="f32" shape="256, 64, 1, 1" offset="246600" size="65536" />
			<output>
				<port id="0" precision="FP32" names="conv2.0.conv3.conv.weight">
					<dim>256</dim>
					<dim>64</dim>
					<dim>1</dim>
					<dim>1</dim>
				</port>
			</output>
		</layer>
		<layer id="145" name="637" type="Convolution" version="opset1">
			<data strides="1, 1" dilations="1, 1" pads_begin="0, 0" pads_end="0, 0" auto_pad="explicit" />
			<input>
				<port id="0" precision="FP32">
					<dim>1</dim>
					<dim>64</dim>
					<dim>52</dim>
					<dim>52</dim>
				</port>
				<port id="1" precision="FP32">
					<dim>256</dim>
					<dim>64</dim>
					<dim>1</dim>
					<dim>1</dim>
				</port>
			</input>
			<output>
				<port id="2" precision="FP32" names="637">
					<dim>1</dim>
					<dim>256</dim>
					<dim>52</dim>
					<dim>52</dim>
				</port>
			</output>
		</layer>
		<layer id="146" name="Constant_1355" type="Const" version="opset1">
			<data element_type="i64" shape="2" offset="16" size="16" />
			<output>
				<port id="0" precision="I64">
					<dim>2</dim>
				</port>
			</output>
		</layer>
		<layer id="147" name="MVN_1356" type="MVN" version="opset6">
			<data eps="9.9999997473787516e-06" normalize_variance="true" eps_mode="INSIDE_SQRT" />
			<input>
				<port id="0" precision="FP32">
					<dim>1</dim>
					<dim>256</dim>
					<dim>52</dim>
					<dim>52</dim>
				</port>
				<port id="1" precision="I64">
					<dim>2</dim>
				</port>
			</input>
			<output>
				<port id="2" precision="FP32">
					<dim>1</dim>
					<dim>256</dim>
					<dim>52</dim>
					<dim>52</dim>
				</port>
			</output>
		</layer>
		<layer id="148" name="Reshape_1368" type="Const" version="opset1">
			<data element_type="f32" shape="1, 256, 1, 1" offset="312136" size="1024" />
			<output>
				<port id="0" precision="FP32">
					<dim>1</dim>
					<dim>256</dim>
					<dim>1</dim>
					<dim>1</dim>
				</port>
			</output>
		</layer>
		<layer id="149" name="Multiply_1371" type="Multiply" version="opset1">
			<data auto_broadcast="numpy" />
			<input>
				<port id="0" precision="FP32">
					<dim>1</dim>
					<dim>256</dim>
					<dim>52</dim>
					<dim>52</dim>
				</port>
				<port id="1" precision="FP32">
					<dim>1</dim>
					<dim>256</dim>
					<dim>1</dim>
					<dim>1</dim>
				</port>
			</input>
			<output>
				<port id="2" precision="FP32">
					<dim>1</dim>
					<dim>256</dim>
					<dim>52</dim>
					<dim>52</dim>
				</port>
			</output>
		</layer>
		<layer id="150" name="Reshape_1381" type="Const" version="opset1">
			<data element_type="f32" shape="1, 256, 1, 1" offset="313160" size="1024" />
			<output>
				<port id="0" precision="FP32">
					<dim>1</dim>
					<dim>256</dim>
					<dim>1</dim>
					<dim>1</dim>
				</port>
			</output>
		</layer>
		<layer id="151" name="638" type="Add" version="opset1">
			<data auto_broadcast="numpy" />
			<input>
				<port id="0" precision="FP32">
					<dim>1</dim>
					<dim>256</dim>
					<dim>52</dim>
					<dim>52</dim>
				</port>
				<port id="1" precision="FP32">
					<dim>1</dim>
					<dim>256</dim>
					<dim>1</dim>
					<dim>1</dim>
				</port>
			</input>
			<output>
				<port id="2" precision="FP32" names="638">
					<dim>1</dim>
					<dim>256</dim>
					<dim>52</dim>
					<dim>52</dim>
				</port>
			</output>
		</layer>
		<layer id="152" name="Multiply_20411" type="Const" version="opset1">
			<data element_type="f32" shape="256, 64, 1, 1" offset="314184" size="65536" />
			<output>
				<port id="0" precision="FP32">
					<dim>256</dim>
					<dim>64</dim>
					<dim>1</dim>
					<dim>1</dim>
				</port>
			</output>
		</layer>
		<layer id="153" name="Multiply_19914" type="Convolution" version="opset1">
			<data strides="1, 1" dilations="1, 1" pads_begin="0, 0" pads_end="0, 0" auto_pad="explicit" />
			<input>
				<port id="0" precision="FP32">
					<dim>1</dim>
					<dim>64</dim>
					<dim>52</dim>
					<dim>52</dim>
				</port>
				<port id="1" precision="FP32">
					<dim>256</dim>
					<dim>64</dim>
					<dim>1</dim>
					<dim>1</dim>
				</port>
			</input>
			<output>
				<port id="2" precision="FP32">
					<dim>1</dim>
					<dim>256</dim>
					<dim>52</dim>
					<dim>52</dim>
				</port>
			</output>
		</layer>
		<layer id="154" name="Constant_19919" type="Const" version="opset1">
			<data element_type="f32" shape="1, 256, 1, 1" offset="379720" size="1024" />
			<output>
				<port id="0" precision="FP32">
					<dim>1</dim>
					<dim>256</dim>
					<dim>1</dim>
					<dim>1</dim>
				</port>
			</output>
		</layer>
		<layer id="155" name="566" type="Add" version="opset1">
			<data auto_broadcast="numpy" />
			<input>
				<port id="0" precision="FP32">
					<dim>1</dim>
					<dim>256</dim>
					<dim>52</dim>
					<dim>52</dim>
				</port>
				<port id="1" precision="FP32">
					<dim>1</dim>
					<dim>256</dim>
					<dim>1</dim>
					<dim>1</dim>
				</port>
			</input>
			<output>
				<port id="2" precision="FP32" names="566">
					<dim>1</dim>
					<dim>256</dim>
					<dim>52</dim>
					<dim>52</dim>
				</port>
			</output>
		</layer>
		<layer id="156" name="639" type="Add" version="opset1">
			<data auto_broadcast="numpy" />
			<input>
				<port id="0" precision="FP32">
					<dim>1</dim>
					<dim>256</dim>
					<dim>52</dim>
					<dim>52</dim>
				</port>
				<port id="1" precision="FP32">
					<dim>1</dim>
					<dim>256</dim>
					<dim>52</dim>
					<dim>52</dim>
				</port>
			</input>
			<output>
				<port id="2" precision="FP32" names="639">
					<dim>1</dim>
					<dim>256</dim>
					<dim>52</dim>
					<dim>52</dim>
				</port>
			</output>
		</layer>
		<layer id="157" name="640" type="ReLU" version="opset1">
			<input>
				<port id="0" precision="FP32">
					<dim>1</dim>
					<dim>256</dim>
					<dim>52</dim>
					<dim>52</dim>
				</port>
			</input>
			<output>
				<port id="1" precision="FP32" names="640">
					<dim>1</dim>
					<dim>256</dim>
					<dim>52</dim>
					<dim>52</dim>
				</port>
			</output>
		</layer>
		<layer id="158" name="Multiply_20415" type="Const" version="opset1">
			<data element_type="f32" shape="64, 256, 1, 1" offset="380744" size="65536" />
			<output>
				<port id="0" precision="FP32">
					<dim>64</dim>
					<dim>256</dim>
					<dim>1</dim>
					<dim>1</dim>
				</port>
			</output>
		</layer>
		<layer id="159" name="Multiply_19921" type="Convolution" version="opset1">
			<data strides="1, 1" dilations="1, 1" pads_begin="0, 0" pads_end="0, 0" auto_pad="explicit" />
			<input>
				<port id="0" precision="FP32">
					<dim>1</dim>
					<dim>256</dim>
					<dim>52</dim>
					<dim>52</dim>
				</port>
				<port id="1" precision="FP32">
					<dim>64</dim>
					<dim>256</dim>
					<dim>1</dim>
					<dim>1</dim>
				</port>
			</input>
			<output>
				<port id="2" precision="FP32">
					<dim>1</dim>
					<dim>64</dim>
					<dim>52</dim>
					<dim>52</dim>
				</port>
			</output>
		</layer>
		<layer id="160" name="Constant_19926" type="Const" version="opset1">
			<data element_type="f32" shape="1, 64, 1, 1" offset="446280" size="256" />
			<output>
				<port id="0" precision="FP32">
					<dim>1</dim>
					<dim>64</dim>
					<dim>1</dim>
					<dim>1</dim>
				</port>
			</output>
		</layer>
		<layer id="161" name="642" type="Add" version="opset1">
			<data auto_broadcast="numpy" />
			<input>
				<port id="0" precision="FP32">
					<dim>1</dim>
					<dim>64</dim>
					<dim>52</dim>
					<dim>52</dim>
				</port>
				<port id="1" precision="FP32">
					<dim>1</dim>
					<dim>64</dim>
					<dim>1</dim>
					<dim>1</dim>
				</port>
			</input>
			<output>
				<port id="2" precision="FP32" names="642">
					<dim>1</dim>
					<dim>64</dim>
					<dim>52</dim>
					<dim>52</dim>
				</port>
			</output>
		</layer>
		<layer id="162" name="643" type="ReLU" version="opset1">
			<input>
				<port id="0" precision="FP32">
					<dim>1</dim>
					<dim>64</dim>
					<dim>52</dim>
					<dim>52</dim>
				</port>
			</input>
			<output>
				<port id="1" precision="FP32" names="643">
					<dim>1</dim>
					<dim>64</dim>
					<dim>52</dim>
					<dim>52</dim>
				</port>
			</output>
		</layer>
		<layer id="163" name="conv2.1.conv2.0.layers.0.conv1.weight" type="Const" version="opset1">
			<data element_type="f32" shape="64, 64, 1, 1" offset="446536" size="16384" />
			<output>
				<port id="0" precision="FP32" names="conv2.1.conv2.0.layers.0.conv1.weight">
					<dim>64</dim>
					<dim>64</dim>
					<dim>1</dim>
					<dim>1</dim>
				</port>
			</output>
		</layer>
		<layer id="164" name="644" type="Convolution" version="opset1">
			<data strides="1, 1" dilations="1, 1" pads_begin="0, 0" pads_end="0, 0" auto_pad="explicit" />
			<input>
				<port id="0" precision="FP32">
					<dim>1</dim>
					<dim>64</dim>
					<dim>52</dim>
					<dim>52</dim>
				</port>
				<port id="1" precision="FP32">
					<dim>64</dim>
					<dim>64</dim>
					<dim>1</dim>
					<dim>1</dim>
				</port>
			</input>
			<output>
				<port id="2" precision="FP32" names="644">
					<dim>1</dim>
					<dim>64</dim>
					<dim>52</dim>
					<dim>52</dim>
				</port>
			</output>
		</layer>
		<layer id="165" name="Multiply_20419" type="Const" version="opset1">
			<data element_type="f32" shape="64, 1, 1, 3, 3" offset="462920" size="2304" />
			<output>
				<port id="0" precision="FP32">
					<dim>64</dim>
					<dim>1</dim>
					<dim>1</dim>
					<dim>3</dim>
					<dim>3</dim>
				</port>
			</output>
		</layer>
		<layer id="166" name="Multiply_19928" type="GroupConvolution" version="opset1">
			<data strides="1, 1" pads_begin="1, 1" pads_end="1, 1" dilations="1, 1" auto_pad="explicit" />
			<input>
				<port id="0" precision="FP32">
					<dim>1</dim>
					<dim>64</dim>
					<dim>52</dim>
					<dim>52</dim>
				</port>
				<port id="1" precision="FP32">
					<dim>64</dim>
					<dim>1</dim>
					<dim>1</dim>
					<dim>3</dim>
					<dim>3</dim>
				</port>
			</input>
			<output>
				<port id="2" precision="FP32" names="645">
					<dim>1</dim>
					<dim>64</dim>
					<dim>52</dim>
					<dim>52</dim>
				</port>
			</output>
		</layer>
		<layer id="167" name="Constant_19933" type="Const" version="opset1">
			<data element_type="f32" shape="1, 64, 1, 1" offset="465224" size="256" />
			<output>
				<port id="0" precision="FP32">
					<dim>1</dim>
					<dim>64</dim>
					<dim>1</dim>
					<dim>1</dim>
				</port>
			</output>
		</layer>
		<layer id="168" name="646" type="Add" version="opset1">
			<data auto_broadcast="numpy" />
			<input>
				<port id="0" precision="FP32">
					<dim>1</dim>
					<dim>64</dim>
					<dim>52</dim>
					<dim>52</dim>
				</port>
				<port id="1" precision="FP32">
					<dim>1</dim>
					<dim>64</dim>
					<dim>1</dim>
					<dim>1</dim>
				</port>
			</input>
			<output>
				<port id="2" precision="FP32" names="646">
					<dim>1</dim>
					<dim>64</dim>
					<dim>52</dim>
					<dim>52</dim>
				</port>
			</output>
		</layer>
		<layer id="169" name="647" type="ReLU" version="opset1">
			<input>
				<port id="0" precision="FP32">
					<dim>1</dim>
					<dim>64</dim>
					<dim>52</dim>
					<dim>52</dim>
				</port>
			</input>
			<output>
				<port id="1" precision="FP32" names="647">
					<dim>1</dim>
					<dim>64</dim>
					<dim>52</dim>
					<dim>52</dim>
				</port>
			</output>
		</layer>
		<layer id="170" name="Range_1450" type="Const" version="opset1">
			<data element_type="i64" shape="2" offset="16" size="16" />
			<output>
				<port id="0" precision="I64">
					<dim>2</dim>
				</port>
			</output>
		</layer>
		<layer id="171" name="648" type="ReduceMean" version="opset1">
			<data keep_dims="true" />
			<input>
				<port id="0" precision="FP32">
					<dim>1</dim>
					<dim>64</dim>
					<dim>52</dim>
					<dim>52</dim>
				</port>
				<port id="1" precision="I64">
					<dim>2</dim>
				</port>
			</input>
			<output>
				<port id="2" precision="FP32" names="648">
					<dim>1</dim>
					<dim>64</dim>
					<dim>1</dim>
					<dim>1</dim>
				</port>
			</output>
		</layer>
		<layer id="172" name="conv2.1.gate.fc1.weight" type="Const" version="opset1">
			<data element_type="f32" shape="4, 64, 1, 1" offset="465480" size="1024" />
			<output>
				<port id="0" precision="FP32" names="conv2.1.gate.fc1.weight">
					<dim>4</dim>
					<dim>64</dim>
					<dim>1</dim>
					<dim>1</dim>
				</port>
			</output>
		</layer>
		<layer id="173" name="649/WithoutBiases" type="Convolution" version="opset1">
			<data strides="1, 1" dilations="1, 1" pads_begin="0, 0" pads_end="0, 0" auto_pad="explicit" />
			<input>
				<port id="0" precision="FP32">
					<dim>1</dim>
					<dim>64</dim>
					<dim>1</dim>
					<dim>1</dim>
				</port>
				<port id="1" precision="FP32">
					<dim>4</dim>
					<dim>64</dim>
					<dim>1</dim>
					<dim>1</dim>
				</port>
			</input>
			<output>
				<port id="2" precision="FP32">
					<dim>1</dim>
					<dim>4</dim>
					<dim>1</dim>
					<dim>1</dim>
				</port>
			</output>
		</layer>
		<layer id="174" name="Reshape_1468" type="Const" version="opset1">
			<data element_type="f32" shape="1, 4, 1, 1" offset="466504" size="16" />
			<output>
				<port id="0" precision="FP32">
					<dim>1</dim>
					<dim>4</dim>
					<dim>1</dim>
					<dim>1</dim>
				</port>
			</output>
		</layer>
		<layer id="175" name="649" type="Add" version="opset1">
			<data auto_broadcast="numpy" />
			<input>
				<port id="0" precision="FP32">
					<dim>1</dim>
					<dim>4</dim>
					<dim>1</dim>
					<dim>1</dim>
				</port>
				<port id="1" precision="FP32">
					<dim>1</dim>
					<dim>4</dim>
					<dim>1</dim>
					<dim>1</dim>
				</port>
			</input>
			<output>
				<port id="2" precision="FP32" names="649">
					<dim>1</dim>
					<dim>4</dim>
					<dim>1</dim>
					<dim>1</dim>
				</port>
			</output>
		</layer>
		<layer id="176" name="650" type="ReLU" version="opset1">
			<input>
				<port id="0" precision="FP32">
					<dim>1</dim>
					<dim>4</dim>
					<dim>1</dim>
					<dim>1</dim>
				</port>
			</input>
			<output>
				<port id="1" precision="FP32" names="650">
					<dim>1</dim>
					<dim>4</dim>
					<dim>1</dim>
					<dim>1</dim>
				</port>
			</output>
		</layer>
		<layer id="177" name="conv2.1.gate.fc2.weight" type="Const" version="opset1">
			<data element_type="f32" shape="64, 4, 1, 1" offset="466520" size="1024" />
			<output>
				<port id="0" precision="FP32" names="conv2.1.gate.fc2.weight">
					<dim>64</dim>
					<dim>4</dim>
					<dim>1</dim>
					<dim>1</dim>
				</port>
			</output>
		</layer>
		<layer id="178" name="651/WithoutBiases" type="Convolution" version="opset1">
			<data strides="1, 1" dilations="1, 1" pads_begin="0, 0" pads_end="0, 0" auto_pad="explicit" />
			<input>
				<port id="0" precision="FP32">
					<dim>1</dim>
					<dim>4</dim>
					<dim>1</dim>
					<dim>1</dim>
				</port>
				<port id="1" precision="FP32">
					<dim>64</dim>
					<dim>4</dim>
					<dim>1</dim>
					<dim>1</dim>
				</port>
			</input>
			<output>
				<port id="2" precision="FP32">
					<dim>1</dim>
					<dim>64</dim>
					<dim>1</dim>
					<dim>1</dim>
				</port>
			</output>
		</layer>
		<layer id="179" name="Reshape_1485" type="Const" version="opset1">
			<data element_type="f32" shape="1, 64, 1, 1" offset="467544" size="256" />
			<output>
				<port id="0" precision="FP32">
					<dim>1</dim>
					<dim>64</dim>
					<dim>1</dim>
					<dim>1</dim>
				</port>
			</output>
		</layer>
		<layer id="180" name="651" type="Add" version="opset1">
			<data auto_broadcast="numpy" />
			<input>
				<port id="0" precision="FP32">
					<dim>1</dim>
					<dim>64</dim>
					<dim>1</dim>
					<dim>1</dim>
				</port>
				<port id="1" precision="FP32">
					<dim>1</dim>
					<dim>64</dim>
					<dim>1</dim>
					<dim>1</dim>
				</port>
			</input>
			<output>
				<port id="2" precision="FP32" names="651">
					<dim>1</dim>
					<dim>64</dim>
					<dim>1</dim>
					<dim>1</dim>
				</port>
			</output>
		</layer>
		<layer id="181" name="652" type="Sigmoid" version="opset1">
			<input>
				<port id="0" precision="FP32">
					<dim>1</dim>
					<dim>64</dim>
					<dim>1</dim>
					<dim>1</dim>
				</port>
			</input>
			<output>
				<port id="1" precision="FP32" names="652">
					<dim>1</dim>
					<dim>64</dim>
					<dim>1</dim>
					<dim>1</dim>
				</port>
			</output>
		</layer>
		<layer id="182" name="653" type="Multiply" version="opset1">
			<data auto_broadcast="numpy" />
			<input>
				<port id="0" precision="FP32">
					<dim>1</dim>
					<dim>64</dim>
					<dim>52</dim>
					<dim>52</dim>
				</port>
				<port id="1" precision="FP32">
					<dim>1</dim>
					<dim>64</dim>
					<dim>1</dim>
					<dim>1</dim>
				</port>
			</input>
			<output>
				<port id="2" precision="FP32" names="653">
					<dim>1</dim>
					<dim>64</dim>
					<dim>52</dim>
					<dim>52</dim>
				</port>
			</output>
		</layer>
		<layer id="183" name="conv2.1.conv2.1.layers.0.conv1.weight" type="Const" version="opset1">
			<data element_type="f32" shape="64, 64, 1, 1" offset="467800" size="16384" />
			<output>
				<port id="0" precision="FP32" names="conv2.1.conv2.1.layers.0.conv1.weight">
					<dim>64</dim>
					<dim>64</dim>
					<dim>1</dim>
					<dim>1</dim>
				</port>
			</output>
		</layer>
		<layer id="184" name="654" type="Convolution" version="opset1">
			<data strides="1, 1" dilations="1, 1" pads_begin="0, 0" pads_end="0, 0" auto_pad="explicit" />
			<input>
				<port id="0" precision="FP32">
					<dim>1</dim>
					<dim>64</dim>
					<dim>52</dim>
					<dim>52</dim>
				</port>
				<port id="1" precision="FP32">
					<dim>64</dim>
					<dim>64</dim>
					<dim>1</dim>
					<dim>1</dim>
				</port>
			</input>
			<output>
				<port id="2" precision="FP32" names="654">
					<dim>1</dim>
					<dim>64</dim>
					<dim>52</dim>
					<dim>52</dim>
				</port>
			</output>
		</layer>
		<layer id="185" name="Multiply_20422" type="Const" version="opset1">
			<data element_type="f32" shape="64, 1, 1, 3, 3" offset="484184" size="2304" />
			<output>
				<port id="0" precision="FP32">
					<dim>64</dim>
					<dim>1</dim>
					<dim>1</dim>
					<dim>3</dim>
					<dim>3</dim>
				</port>
			</output>
		</layer>
		<layer id="186" name="Multiply_19935" type="GroupConvolution" version="opset1">
			<data strides="1, 1" pads_begin="1, 1" pads_end="1, 1" dilations="1, 1" auto_pad="explicit" />
			<input>
				<port id="0" precision="FP32">
					<dim>1</dim>
					<dim>64</dim>
					<dim>52</dim>
					<dim>52</dim>
				</port>
				<port id="1" precision="FP32">
					<dim>64</dim>
					<dim>1</dim>
					<dim>1</dim>
					<dim>3</dim>
					<dim>3</dim>
				</port>
			</input>
			<output>
				<port id="2" precision="FP32" names="655">
					<dim>1</dim>
					<dim>64</dim>
					<dim>52</dim>
					<dim>52</dim>
				</port>
			</output>
		</layer>
		<layer id="187" name="Constant_19940" type="Const" version="opset1">
			<data element_type="f32" shape="1, 64, 1, 1" offset="486488" size="256" />
			<output>
				<port id="0" precision="FP32">
					<dim>1</dim>
					<dim>64</dim>
					<dim>1</dim>
					<dim>1</dim>
				</port>
			</output>
		</layer>
		<layer id="188" name="656" type="Add" version="opset1">
			<data auto_broadcast="numpy" />
			<input>
				<port id="0" precision="FP32">
					<dim>1</dim>
					<dim>64</dim>
					<dim>52</dim>
					<dim>52</dim>
				</port>
				<port id="1" precision="FP32">
					<dim>1</dim>
					<dim>64</dim>
					<dim>1</dim>
					<dim>1</dim>
				</port>
			</input>
			<output>
				<port id="2" precision="FP32" names="656">
					<dim>1</dim>
					<dim>64</dim>
					<dim>52</dim>
					<dim>52</dim>
				</port>
			</output>
		</layer>
		<layer id="189" name="657" type="ReLU" version="opset1">
			<input>
				<port id="0" precision="FP32">
					<dim>1</dim>
					<dim>64</dim>
					<dim>52</dim>
					<dim>52</dim>
				</port>
			</input>
			<output>
				<port id="1" precision="FP32" names="657">
					<dim>1</dim>
					<dim>64</dim>
					<dim>52</dim>
					<dim>52</dim>
				</port>
			</output>
		</layer>
		<layer id="190" name="conv2.1.conv2.1.layers.1.conv1.weight" type="Const" version="opset1">
			<data element_type="f32" shape="64, 64, 1, 1" offset="486744" size="16384" />
			<output>
				<port id="0" precision="FP32" names="conv2.1.conv2.1.layers.1.conv1.weight">
					<dim>64</dim>
					<dim>64</dim>
					<dim>1</dim>
					<dim>1</dim>
				</port>
			</output>
		</layer>
		<layer id="191" name="658" type="Convolution" version="opset1">
			<data strides="1, 1" dilations="1, 1" pads_begin="0, 0" pads_end="0, 0" auto_pad="explicit" />
			<input>
				<port id="0" precision="FP32">
					<dim>1</dim>
					<dim>64</dim>
					<dim>52</dim>
					<dim>52</dim>
				</port>
				<port id="1" precision="FP32">
					<dim>64</dim>
					<dim>64</dim>
					<dim>1</dim>
					<dim>1</dim>
				</port>
			</input>
			<output>
				<port id="2" precision="FP32" names="658">
					<dim>1</dim>
					<dim>64</dim>
					<dim>52</dim>
					<dim>52</dim>
				</port>
			</output>
		</layer>
		<layer id="192" name="Multiply_20425" type="Const" version="opset1">
			<data element_type="f32" shape="64, 1, 1, 3, 3" offset="503128" size="2304" />
			<output>
				<port id="0" precision="FP32">
					<dim>64</dim>
					<dim>1</dim>
					<dim>1</dim>
					<dim>3</dim>
					<dim>3</dim>
				</port>
			</output>
		</layer>
		<layer id="193" name="Multiply_19942" type="GroupConvolution" version="opset1">
			<data strides="1, 1" pads_begin="1, 1" pads_end="1, 1" dilations="1, 1" auto_pad="explicit" />
			<input>
				<port id="0" precision="FP32">
					<dim>1</dim>
					<dim>64</dim>
					<dim>52</dim>
					<dim>52</dim>
				</port>
				<port id="1" precision="FP32">
					<dim>64</dim>
					<dim>1</dim>
					<dim>1</dim>
					<dim>3</dim>
					<dim>3</dim>
				</port>
			</input>
			<output>
				<port id="2" precision="FP32" names="659">
					<dim>1</dim>
					<dim>64</dim>
					<dim>52</dim>
					<dim>52</dim>
				</port>
			</output>
		</layer>
		<layer id="194" name="Constant_19947" type="Const" version="opset1">
			<data element_type="f32" shape="1, 64, 1, 1" offset="505432" size="256" />
			<output>
				<port id="0" precision="FP32">
					<dim>1</dim>
					<dim>64</dim>
					<dim>1</dim>
					<dim>1</dim>
				</port>
			</output>
		</layer>
		<layer id="195" name="660" type="Add" version="opset1">
			<data auto_broadcast="numpy" />
			<input>
				<port id="0" precision="FP32">
					<dim>1</dim>
					<dim>64</dim>
					<dim>52</dim>
					<dim>52</dim>
				</port>
				<port id="1" precision="FP32">
					<dim>1</dim>
					<dim>64</dim>
					<dim>1</dim>
					<dim>1</dim>
				</port>
			</input>
			<output>
				<port id="2" precision="FP32" names="660">
					<dim>1</dim>
					<dim>64</dim>
					<dim>52</dim>
					<dim>52</dim>
				</port>
			</output>
		</layer>
		<layer id="196" name="661" type="ReLU" version="opset1">
			<input>
				<port id="0" precision="FP32">
					<dim>1</dim>
					<dim>64</dim>
					<dim>52</dim>
					<dim>52</dim>
				</port>
			</input>
			<output>
				<port id="1" precision="FP32" names="661">
					<dim>1</dim>
					<dim>64</dim>
					<dim>52</dim>
					<dim>52</dim>
				</port>
			</output>
		</layer>
		<layer id="197" name="Range_1603" type="Const" version="opset1">
			<data element_type="i64" shape="2" offset="16" size="16" />
			<output>
				<port id="0" precision="I64">
					<dim>2</dim>
				</port>
			</output>
		</layer>
		<layer id="198" name="662" type="ReduceMean" version="opset1">
			<data keep_dims="true" />
			<input>
				<port id="0" precision="FP32">
					<dim>1</dim>
					<dim>64</dim>
					<dim>52</dim>
					<dim>52</dim>
				</port>
				<port id="1" precision="I64">
					<dim>2</dim>
				</port>
			</input>
			<output>
				<port id="2" precision="FP32" names="662">
					<dim>1</dim>
					<dim>64</dim>
					<dim>1</dim>
					<dim>1</dim>
				</port>
			</output>
		</layer>
		<layer id="199" name="663/WithoutBiases" type="Convolution" version="opset1">
			<data strides="1, 1" dilations="1, 1" pads_begin="0, 0" pads_end="0, 0" auto_pad="explicit" />
			<input>
				<port id="0" precision="FP32">
					<dim>1</dim>
					<dim>64</dim>
					<dim>1</dim>
					<dim>1</dim>
				</port>
				<port id="1" precision="FP32">
					<dim>4</dim>
					<dim>64</dim>
					<dim>1</dim>
					<dim>1</dim>
				</port>
			</input>
			<output>
				<port id="2" precision="FP32">
					<dim>1</dim>
					<dim>4</dim>
					<dim>1</dim>
					<dim>1</dim>
				</port>
			</output>
		</layer>
		<layer id="200" name="Reshape_1621" type="Const" version="opset1">
			<data element_type="f32" shape="1, 4, 1, 1" offset="466504" size="16" />
			<output>
				<port id="0" precision="FP32">
					<dim>1</dim>
					<dim>4</dim>
					<dim>1</dim>
					<dim>1</dim>
				</port>
			</output>
		</layer>
		<layer id="201" name="663" type="Add" version="opset1">
			<data auto_broadcast="numpy" />
			<input>
				<port id="0" precision="FP32">
					<dim>1</dim>
					<dim>4</dim>
					<dim>1</dim>
					<dim>1</dim>
				</port>
				<port id="1" precision="FP32">
					<dim>1</dim>
					<dim>4</dim>
					<dim>1</dim>
					<dim>1</dim>
				</port>
			</input>
			<output>
				<port id="2" precision="FP32" names="663">
					<dim>1</dim>
					<dim>4</dim>
					<dim>1</dim>
					<dim>1</dim>
				</port>
			</output>
		</layer>
		<layer id="202" name="664" type="ReLU" version="opset1">
			<input>
				<port id="0" precision="FP32">
					<dim>1</dim>
					<dim>4</dim>
					<dim>1</dim>
					<dim>1</dim>
				</port>
			</input>
			<output>
				<port id="1" precision="FP32" names="664">
					<dim>1</dim>
					<dim>4</dim>
					<dim>1</dim>
					<dim>1</dim>
				</port>
			</output>
		</layer>
		<layer id="203" name="665/WithoutBiases" type="Convolution" version="opset1">
			<data strides="1, 1" dilations="1, 1" pads_begin="0, 0" pads_end="0, 0" auto_pad="explicit" />
			<input>
				<port id="0" precision="FP32">
					<dim>1</dim>
					<dim>4</dim>
					<dim>1</dim>
					<dim>1</dim>
				</port>
				<port id="1" precision="FP32">
					<dim>64</dim>
					<dim>4</dim>
					<dim>1</dim>
					<dim>1</dim>
				</port>
			</input>
			<output>
				<port id="2" precision="FP32">
					<dim>1</dim>
					<dim>64</dim>
					<dim>1</dim>
					<dim>1</dim>
				</port>
			</output>
		</layer>
		<layer id="204" name="Reshape_1638" type="Const" version="opset1">
			<data element_type="f32" shape="1, 64, 1, 1" offset="467544" size="256" />
			<output>
				<port id="0" precision="FP32">
					<dim>1</dim>
					<dim>64</dim>
					<dim>1</dim>
					<dim>1</dim>
				</port>
			</output>
		</layer>
		<layer id="205" name="665" type="Add" version="opset1">
			<data auto_broadcast="numpy" />
			<input>
				<port id="0" precision="FP32">
					<dim>1</dim>
					<dim>64</dim>
					<dim>1</dim>
					<dim>1</dim>
				</port>
				<port id="1" precision="FP32">
					<dim>1</dim>
					<dim>64</dim>
					<dim>1</dim>
					<dim>1</dim>
				</port>
			</input>
			<output>
				<port id="2" precision="FP32" names="665">
					<dim>1</dim>
					<dim>64</dim>
					<dim>1</dim>
					<dim>1</dim>
				</port>
			</output>
		</layer>
		<layer id="206" name="666" type="Sigmoid" version="opset1">
			<input>
				<port id="0" precision="FP32">
					<dim>1</dim>
					<dim>64</dim>
					<dim>1</dim>
					<dim>1</dim>
				</port>
			</input>
			<output>
				<port id="1" precision="FP32" names="666">
					<dim>1</dim>
					<dim>64</dim>
					<dim>1</dim>
					<dim>1</dim>
				</port>
			</output>
		</layer>
		<layer id="207" name="667" type="Multiply" version="opset1">
			<data auto_broadcast="numpy" />
			<input>
				<port id="0" precision="FP32">
					<dim>1</dim>
					<dim>64</dim>
					<dim>52</dim>
					<dim>52</dim>
				</port>
				<port id="1" precision="FP32">
					<dim>1</dim>
					<dim>64</dim>
					<dim>1</dim>
					<dim>1</dim>
				</port>
			</input>
			<output>
				<port id="2" precision="FP32" names="667">
					<dim>1</dim>
					<dim>64</dim>
					<dim>52</dim>
					<dim>52</dim>
				</port>
			</output>
		</layer>
		<layer id="208" name="668" type="Add" version="opset1">
			<data auto_broadcast="numpy" />
			<input>
				<port id="0" precision="FP32">
					<dim>1</dim>
					<dim>64</dim>
					<dim>52</dim>
					<dim>52</dim>
				</port>
				<port id="1" precision="FP32">
					<dim>1</dim>
					<dim>64</dim>
					<dim>52</dim>
					<dim>52</dim>
				</port>
			</input>
			<output>
				<port id="2" precision="FP32" names="668">
					<dim>1</dim>
					<dim>64</dim>
					<dim>52</dim>
					<dim>52</dim>
				</port>
			</output>
		</layer>
		<layer id="209" name="conv2.1.conv2.2.layers.0.conv1.weight" type="Const" version="opset1">
			<data element_type="f32" shape="64, 64, 1, 1" offset="505688" size="16384" />
			<output>
				<port id="0" precision="FP32" names="conv2.1.conv2.2.layers.0.conv1.weight">
					<dim>64</dim>
					<dim>64</dim>
					<dim>1</dim>
					<dim>1</dim>
				</port>
			</output>
		</layer>
		<layer id="210" name="669" type="Convolution" version="opset1">
			<data strides="1, 1" dilations="1, 1" pads_begin="0, 0" pads_end="0, 0" auto_pad="explicit" />
			<input>
				<port id="0" precision="FP32">
					<dim>1</dim>
					<dim>64</dim>
					<dim>52</dim>
					<dim>52</dim>
				</port>
				<port id="1" precision="FP32">
					<dim>64</dim>
					<dim>64</dim>
					<dim>1</dim>
					<dim>1</dim>
				</port>
			</input>
			<output>
				<port id="2" precision="FP32" names="669">
					<dim>1</dim>
					<dim>64</dim>
					<dim>52</dim>
					<dim>52</dim>
				</port>
			</output>
		</layer>
		<layer id="211" name="Multiply_20428" type="Const" version="opset1">
			<data element_type="f32" shape="64, 1, 1, 3, 3" offset="522072" size="2304" />
			<output>
				<port id="0" precision="FP32">
					<dim>64</dim>
					<dim>1</dim>
					<dim>1</dim>
					<dim>3</dim>
					<dim>3</dim>
				</port>
			</output>
		</layer>
		<layer id="212" name="Multiply_19949" type="GroupConvolution" version="opset1">
			<data strides="1, 1" pads_begin="1, 1" pads_end="1, 1" dilations="1, 1" auto_pad="explicit" />
			<input>
				<port id="0" precision="FP32">
					<dim>1</dim>
					<dim>64</dim>
					<dim>52</dim>
					<dim>52</dim>
				</port>
				<port id="1" precision="FP32">
					<dim>64</dim>
					<dim>1</dim>
					<dim>1</dim>
					<dim>3</dim>
					<dim>3</dim>
				</port>
			</input>
			<output>
				<port id="2" precision="FP32" names="670">
					<dim>1</dim>
					<dim>64</dim>
					<dim>52</dim>
					<dim>52</dim>
				</port>
			</output>
		</layer>
		<layer id="213" name="Constant_19954" type="Const" version="opset1">
			<data element_type="f32" shape="1, 64, 1, 1" offset="524376" size="256" />
			<output>
				<port id="0" precision="FP32">
					<dim>1</dim>
					<dim>64</dim>
					<dim>1</dim>
					<dim>1</dim>
				</port>
			</output>
		</layer>
		<layer id="214" name="671" type="Add" version="opset1">
			<data auto_broadcast="numpy" />
			<input>
				<port id="0" precision="FP32">
					<dim>1</dim>
					<dim>64</dim>
					<dim>52</dim>
					<dim>52</dim>
				</port>
				<port id="1" precision="FP32">
					<dim>1</dim>
					<dim>64</dim>
					<dim>1</dim>
					<dim>1</dim>
				</port>
			</input>
			<output>
				<port id="2" precision="FP32" names="671">
					<dim>1</dim>
					<dim>64</dim>
					<dim>52</dim>
					<dim>52</dim>
				</port>
			</output>
		</layer>
		<layer id="215" name="672" type="ReLU" version="opset1">
			<input>
				<port id="0" precision="FP32">
					<dim>1</dim>
					<dim>64</dim>
					<dim>52</dim>
					<dim>52</dim>
				</port>
			</input>
			<output>
				<port id="1" precision="FP32" names="672">
					<dim>1</dim>
					<dim>64</dim>
					<dim>52</dim>
					<dim>52</dim>
				</port>
			</output>
		</layer>
		<layer id="216" name="conv2.1.conv2.2.layers.1.conv1.weight" type="Const" version="opset1">
			<data element_type="f32" shape="64, 64, 1, 1" offset="524632" size="16384" />
			<output>
				<port id="0" precision="FP32" names="conv2.1.conv2.2.layers.1.conv1.weight">
					<dim>64</dim>
					<dim>64</dim>
					<dim>1</dim>
					<dim>1</dim>
				</port>
			</output>
		</layer>
		<layer id="217" name="673" type="Convolution" version="opset1">
			<data strides="1, 1" dilations="1, 1" pads_begin="0, 0" pads_end="0, 0" auto_pad="explicit" />
			<input>
				<port id="0" precision="FP32">
					<dim>1</dim>
					<dim>64</dim>
					<dim>52</dim>
					<dim>52</dim>
				</port>
				<port id="1" precision="FP32">
					<dim>64</dim>
					<dim>64</dim>
					<dim>1</dim>
					<dim>1</dim>
				</port>
			</input>
			<output>
				<port id="2" precision="FP32" names="673">
					<dim>1</dim>
					<dim>64</dim>
					<dim>52</dim>
					<dim>52</dim>
				</port>
			</output>
		</layer>
		<layer id="218" name="Multiply_20431" type="Const" version="opset1">
			<data element_type="f32" shape="64, 1, 1, 3, 3" offset="541016" size="2304" />
			<output>
				<port id="0" precision="FP32">
					<dim>64</dim>
					<dim>1</dim>
					<dim>1</dim>
					<dim>3</dim>
					<dim>3</dim>
				</port>
			</output>
		</layer>
		<layer id="219" name="Multiply_19956" type="GroupConvolution" version="opset1">
			<data strides="1, 1" pads_begin="1, 1" pads_end="1, 1" dilations="1, 1" auto_pad="explicit" />
			<input>
				<port id="0" precision="FP32">
					<dim>1</dim>
					<dim>64</dim>
					<dim>52</dim>
					<dim>52</dim>
				</port>
				<port id="1" precision="FP32">
					<dim>64</dim>
					<dim>1</dim>
					<dim>1</dim>
					<dim>3</dim>
					<dim>3</dim>
				</port>
			</input>
			<output>
				<port id="2" precision="FP32" names="674">
					<dim>1</dim>
					<dim>64</dim>
					<dim>52</dim>
					<dim>52</dim>
				</port>
			</output>
		</layer>
		<layer id="220" name="Constant_19961" type="Const" version="opset1">
			<data element_type="f32" shape="1, 64, 1, 1" offset="543320" size="256" />
			<output>
				<port id="0" precision="FP32">
					<dim>1</dim>
					<dim>64</dim>
					<dim>1</dim>
					<dim>1</dim>
				</port>
			</output>
		</layer>
		<layer id="221" name="675" type="Add" version="opset1">
			<data auto_broadcast="numpy" />
			<input>
				<port id="0" precision="FP32">
					<dim>1</dim>
					<dim>64</dim>
					<dim>52</dim>
					<dim>52</dim>
				</port>
				<port id="1" precision="FP32">
					<dim>1</dim>
					<dim>64</dim>
					<dim>1</dim>
					<dim>1</dim>
				</port>
			</input>
			<output>
				<port id="2" precision="FP32" names="675">
					<dim>1</dim>
					<dim>64</dim>
					<dim>52</dim>
					<dim>52</dim>
				</port>
			</output>
		</layer>
		<layer id="222" name="676" type="ReLU" version="opset1">
			<input>
				<port id="0" precision="FP32">
					<dim>1</dim>
					<dim>64</dim>
					<dim>52</dim>
					<dim>52</dim>
				</port>
			</input>
			<output>
				<port id="1" precision="FP32" names="676">
					<dim>1</dim>
					<dim>64</dim>
					<dim>52</dim>
					<dim>52</dim>
				</port>
			</output>
		</layer>
		<layer id="223" name="conv2.1.conv2.2.layers.2.conv1.weight" type="Const" version="opset1">
			<data element_type="f32" shape="64, 64, 1, 1" offset="543576" size="16384" />
			<output>
				<port id="0" precision="FP32" names="conv2.1.conv2.2.layers.2.conv1.weight">
					<dim>64</dim>
					<dim>64</dim>
					<dim>1</dim>
					<dim>1</dim>
				</port>
			</output>
		</layer>
		<layer id="224" name="677" type="Convolution" version="opset1">
			<data strides="1, 1" dilations="1, 1" pads_begin="0, 0" pads_end="0, 0" auto_pad="explicit" />
			<input>
				<port id="0" precision="FP32">
					<dim>1</dim>
					<dim>64</dim>
					<dim>52</dim>
					<dim>52</dim>
				</port>
				<port id="1" precision="FP32">
					<dim>64</dim>
					<dim>64</dim>
					<dim>1</dim>
					<dim>1</dim>
				</port>
			</input>
			<output>
				<port id="2" precision="FP32" names="677">
					<dim>1</dim>
					<dim>64</dim>
					<dim>52</dim>
					<dim>52</dim>
				</port>
			</output>
		</layer>
		<layer id="225" name="Multiply_20434" type="Const" version="opset1">
			<data element_type="f32" shape="64, 1, 1, 3, 3" offset="559960" size="2304" />
			<output>
				<port id="0" precision="FP32">
					<dim>64</dim>
					<dim>1</dim>
					<dim>1</dim>
					<dim>3</dim>
					<dim>3</dim>
				</port>
			</output>
		</layer>
		<layer id="226" name="Multiply_19963" type="GroupConvolution" version="opset1">
			<data strides="1, 1" pads_begin="1, 1" pads_end="1, 1" dilations="1, 1" auto_pad="explicit" />
			<input>
				<port id="0" precision="FP32">
					<dim>1</dim>
					<dim>64</dim>
					<dim>52</dim>
					<dim>52</dim>
				</port>
				<port id="1" precision="FP32">
					<dim>64</dim>
					<dim>1</dim>
					<dim>1</dim>
					<dim>3</dim>
					<dim>3</dim>
				</port>
			</input>
			<output>
				<port id="2" precision="FP32" names="678">
					<dim>1</dim>
					<dim>64</dim>
					<dim>52</dim>
					<dim>52</dim>
				</port>
			</output>
		</layer>
		<layer id="227" name="Constant_19968" type="Const" version="opset1">
			<data element_type="f32" shape="1, 64, 1, 1" offset="562264" size="256" />
			<output>
				<port id="0" precision="FP32">
					<dim>1</dim>
					<dim>64</dim>
					<dim>1</dim>
					<dim>1</dim>
				</port>
			</output>
		</layer>
		<layer id="228" name="679" type="Add" version="opset1">
			<data auto_broadcast="numpy" />
			<input>
				<port id="0" precision="FP32">
					<dim>1</dim>
					<dim>64</dim>
					<dim>52</dim>
					<dim>52</dim>
				</port>
				<port id="1" precision="FP32">
					<dim>1</dim>
					<dim>64</dim>
					<dim>1</dim>
					<dim>1</dim>
				</port>
			</input>
			<output>
				<port id="2" precision="FP32" names="679">
					<dim>1</dim>
					<dim>64</dim>
					<dim>52</dim>
					<dim>52</dim>
				</port>
			</output>
		</layer>
		<layer id="229" name="680" type="ReLU" version="opset1">
			<input>
				<port id="0" precision="FP32">
					<dim>1</dim>
					<dim>64</dim>
					<dim>52</dim>
					<dim>52</dim>
				</port>
			</input>
			<output>
				<port id="1" precision="FP32" names="680">
					<dim>1</dim>
					<dim>64</dim>
					<dim>52</dim>
					<dim>52</dim>
				</port>
			</output>
		</layer>
		<layer id="230" name="Range_1810" type="Const" version="opset1">
			<data element_type="i64" shape="2" offset="16" size="16" />
			<output>
				<port id="0" precision="I64">
					<dim>2</dim>
				</port>
			</output>
		</layer>
		<layer id="231" name="681" type="ReduceMean" version="opset1">
			<data keep_dims="true" />
			<input>
				<port id="0" precision="FP32">
					<dim>1</dim>
					<dim>64</dim>
					<dim>52</dim>
					<dim>52</dim>
				</port>
				<port id="1" precision="I64">
					<dim>2</dim>
				</port>
			</input>
			<output>
				<port id="2" precision="FP32" names="681">
					<dim>1</dim>
					<dim>64</dim>
					<dim>1</dim>
					<dim>1</dim>
				</port>
			</output>
		</layer>
		<layer id="232" name="682/WithoutBiases" type="Convolution" version="opset1">
			<data strides="1, 1" dilations="1, 1" pads_begin="0, 0" pads_end="0, 0" auto_pad="explicit" />
			<input>
				<port id="0" precision="FP32">
					<dim>1</dim>
					<dim>64</dim>
					<dim>1</dim>
					<dim>1</dim>
				</port>
				<port id="1" precision="FP32">
					<dim>4</dim>
					<dim>64</dim>
					<dim>1</dim>
					<dim>1</dim>
				</port>
			</input>
			<output>
				<port id="2" precision="FP32">
					<dim>1</dim>
					<dim>4</dim>
					<dim>1</dim>
					<dim>1</dim>
				</port>
			</output>
		</layer>
		<layer id="233" name="Reshape_1828" type="Const" version="opset1">
			<data element_type="f32" shape="1, 4, 1, 1" offset="466504" size="16" />
			<output>
				<port id="0" precision="FP32">
					<dim>1</dim>
					<dim>4</dim>
					<dim>1</dim>
					<dim>1</dim>
				</port>
			</output>
		</layer>
		<layer id="234" name="682" type="Add" version="opset1">
			<data auto_broadcast="numpy" />
			<input>
				<port id="0" precision="FP32">
					<dim>1</dim>
					<dim>4</dim>
					<dim>1</dim>
					<dim>1</dim>
				</port>
				<port id="1" precision="FP32">
					<dim>1</dim>
					<dim>4</dim>
					<dim>1</dim>
					<dim>1</dim>
				</port>
			</input>
			<output>
				<port id="2" precision="FP32" names="682">
					<dim>1</dim>
					<dim>4</dim>
					<dim>1</dim>
					<dim>1</dim>
				</port>
			</output>
		</layer>
		<layer id="235" name="683" type="ReLU" version="opset1">
			<input>
				<port id="0" precision="FP32">
					<dim>1</dim>
					<dim>4</dim>
					<dim>1</dim>
					<dim>1</dim>
				</port>
			</input>
			<output>
				<port id="1" precision="FP32" names="683">
					<dim>1</dim>
					<dim>4</dim>
					<dim>1</dim>
					<dim>1</dim>
				</port>
			</output>
		</layer>
		<layer id="236" name="684/WithoutBiases" type="Convolution" version="opset1">
			<data strides="1, 1" dilations="1, 1" pads_begin="0, 0" pads_end="0, 0" auto_pad="explicit" />
			<input>
				<port id="0" precision="FP32">
					<dim>1</dim>
					<dim>4</dim>
					<dim>1</dim>
					<dim>1</dim>
				</port>
				<port id="1" precision="FP32">
					<dim>64</dim>
					<dim>4</dim>
					<dim>1</dim>
					<dim>1</dim>
				</port>
			</input>
			<output>
				<port id="2" precision="FP32">
					<dim>1</dim>
					<dim>64</dim>
					<dim>1</dim>
					<dim>1</dim>
				</port>
			</output>
		</layer>
		<layer id="237" name="Reshape_1845" type="Const" version="opset1">
			<data element_type="f32" shape="1, 64, 1, 1" offset="467544" size="256" />
			<output>
				<port id="0" precision="FP32">
					<dim>1</dim>
					<dim>64</dim>
					<dim>1</dim>
					<dim>1</dim>
				</port>
			</output>
		</layer>
		<layer id="238" name="684" type="Add" version="opset1">
			<data auto_broadcast="numpy" />
			<input>
				<port id="0" precision="FP32">
					<dim>1</dim>
					<dim>64</dim>
					<dim>1</dim>
					<dim>1</dim>
				</port>
				<port id="1" precision="FP32">
					<dim>1</dim>
					<dim>64</dim>
					<dim>1</dim>
					<dim>1</dim>
				</port>
			</input>
			<output>
				<port id="2" precision="FP32" names="684">
					<dim>1</dim>
					<dim>64</dim>
					<dim>1</dim>
					<dim>1</dim>
				</port>
			</output>
		</layer>
		<layer id="239" name="685" type="Sigmoid" version="opset1">
			<input>
				<port id="0" precision="FP32">
					<dim>1</dim>
					<dim>64</dim>
					<dim>1</dim>
					<dim>1</dim>
				</port>
			</input>
			<output>
				<port id="1" precision="FP32" names="685">
					<dim>1</dim>
					<dim>64</dim>
					<dim>1</dim>
					<dim>1</dim>
				</port>
			</output>
		</layer>
		<layer id="240" name="686" type="Multiply" version="opset1">
			<data auto_broadcast="numpy" />
			<input>
				<port id="0" precision="FP32">
					<dim>1</dim>
					<dim>64</dim>
					<dim>52</dim>
					<dim>52</dim>
				</port>
				<port id="1" precision="FP32">
					<dim>1</dim>
					<dim>64</dim>
					<dim>1</dim>
					<dim>1</dim>
				</port>
			</input>
			<output>
				<port id="2" precision="FP32" names="686">
					<dim>1</dim>
					<dim>64</dim>
					<dim>52</dim>
					<dim>52</dim>
				</port>
			</output>
		</layer>
		<layer id="241" name="687" type="Add" version="opset1">
			<data auto_broadcast="numpy" />
			<input>
				<port id="0" precision="FP32">
					<dim>1</dim>
					<dim>64</dim>
					<dim>52</dim>
					<dim>52</dim>
				</port>
				<port id="1" precision="FP32">
					<dim>1</dim>
					<dim>64</dim>
					<dim>52</dim>
					<dim>52</dim>
				</port>
			</input>
			<output>
				<port id="2" precision="FP32" names="687">
					<dim>1</dim>
					<dim>64</dim>
					<dim>52</dim>
					<dim>52</dim>
				</port>
			</output>
		</layer>
		<layer id="242" name="conv2.1.conv2.3.layers.0.conv1.weight" type="Const" version="opset1">
			<data element_type="f32" shape="64, 64, 1, 1" offset="562520" size="16384" />
			<output>
				<port id="0" precision="FP32" names="conv2.1.conv2.3.layers.0.conv1.weight">
					<dim>64</dim>
					<dim>64</dim>
					<dim>1</dim>
					<dim>1</dim>
				</port>
			</output>
		</layer>
		<layer id="243" name="688" type="Convolution" version="opset1">
			<data strides="1, 1" dilations="1, 1" pads_begin="0, 0" pads_end="0, 0" auto_pad="explicit" />
			<input>
				<port id="0" precision="FP32">
					<dim>1</dim>
					<dim>64</dim>
					<dim>52</dim>
					<dim>52</dim>
				</port>
				<port id="1" precision="FP32">
					<dim>64</dim>
					<dim>64</dim>
					<dim>1</dim>
					<dim>1</dim>
				</port>
			</input>
			<output>
				<port id="2" precision="FP32" names="688">
					<dim>1</dim>
					<dim>64</dim>
					<dim>52</dim>
					<dim>52</dim>
				</port>
			</output>
		</layer>
		<layer id="244" name="Multiply_20437" type="Const" version="opset1">
			<data element_type="f32" shape="64, 1, 1, 3, 3" offset="578904" size="2304" />
			<output>
				<port id="0" precision="FP32">
					<dim>64</dim>
					<dim>1</dim>
					<dim>1</dim>
					<dim>3</dim>
					<dim>3</dim>
				</port>
			</output>
		</layer>
		<layer id="245" name="Multiply_19970" type="GroupConvolution" version="opset1">
			<data strides="1, 1" pads_begin="1, 1" pads_end="1, 1" dilations="1, 1" auto_pad="explicit" />
			<input>
				<port id="0" precision="FP32">
					<dim>1</dim>
					<dim>64</dim>
					<dim>52</dim>
					<dim>52</dim>
				</port>
				<port id="1" precision="FP32">
					<dim>64</dim>
					<dim>1</dim>
					<dim>1</dim>
					<dim>3</dim>
					<dim>3</dim>
				</port>
			</input>
			<output>
				<port id="2" precision="FP32" names="689">
					<dim>1</dim>
					<dim>64</dim>
					<dim>52</dim>
					<dim>52</dim>
				</port>
			</output>
		</layer>
		<layer id="246" name="Constant_19975" type="Const" version="opset1">
			<data element_type="f32" shape="1, 64, 1, 1" offset="581208" size="256" />
			<output>
				<port id="0" precision="FP32">
					<dim>1</dim>
					<dim>64</dim>
					<dim>1</dim>
					<dim>1</dim>
				</port>
			</output>
		</layer>
		<layer id="247" name="690" type="Add" version="opset1">
			<data auto_broadcast="numpy" />
			<input>
				<port id="0" precision="FP32">
					<dim>1</dim>
					<dim>64</dim>
					<dim>52</dim>
					<dim>52</dim>
				</port>
				<port id="1" precision="FP32">
					<dim>1</dim>
					<dim>64</dim>
					<dim>1</dim>
					<dim>1</dim>
				</port>
			</input>
			<output>
				<port id="2" precision="FP32" names="690">
					<dim>1</dim>
					<dim>64</dim>
					<dim>52</dim>
					<dim>52</dim>
				</port>
			</output>
		</layer>
		<layer id="248" name="691" type="ReLU" version="opset1">
			<input>
				<port id="0" precision="FP32">
					<dim>1</dim>
					<dim>64</dim>
					<dim>52</dim>
					<dim>52</dim>
				</port>
			</input>
			<output>
				<port id="1" precision="FP32" names="691">
					<dim>1</dim>
					<dim>64</dim>
					<dim>52</dim>
					<dim>52</dim>
				</port>
			</output>
		</layer>
		<layer id="249" name="conv2.1.conv2.3.layers.1.conv1.weight" type="Const" version="opset1">
			<data element_type="f32" shape="64, 64, 1, 1" offset="581464" size="16384" />
			<output>
				<port id="0" precision="FP32" names="conv2.1.conv2.3.layers.1.conv1.weight">
					<dim>64</dim>
					<dim>64</dim>
					<dim>1</dim>
					<dim>1</dim>
				</port>
			</output>
		</layer>
		<layer id="250" name="692" type="Convolution" version="opset1">
			<data strides="1, 1" dilations="1, 1" pads_begin="0, 0" pads_end="0, 0" auto_pad="explicit" />
			<input>
				<port id="0" precision="FP32">
					<dim>1</dim>
					<dim>64</dim>
					<dim>52</dim>
					<dim>52</dim>
				</port>
				<port id="1" precision="FP32">
					<dim>64</dim>
					<dim>64</dim>
					<dim>1</dim>
					<dim>1</dim>
				</port>
			</input>
			<output>
				<port id="2" precision="FP32" names="692">
					<dim>1</dim>
					<dim>64</dim>
					<dim>52</dim>
					<dim>52</dim>
				</port>
			</output>
		</layer>
		<layer id="251" name="Multiply_20440" type="Const" version="opset1">
			<data element_type="f32" shape="64, 1, 1, 3, 3" offset="597848" size="2304" />
			<output>
				<port id="0" precision="FP32">
					<dim>64</dim>
					<dim>1</dim>
					<dim>1</dim>
					<dim>3</dim>
					<dim>3</dim>
				</port>
			</output>
		</layer>
		<layer id="252" name="Multiply_19977" type="GroupConvolution" version="opset1">
			<data strides="1, 1" pads_begin="1, 1" pads_end="1, 1" dilations="1, 1" auto_pad="explicit" />
			<input>
				<port id="0" precision="FP32">
					<dim>1</dim>
					<dim>64</dim>
					<dim>52</dim>
					<dim>52</dim>
				</port>
				<port id="1" precision="FP32">
					<dim>64</dim>
					<dim>1</dim>
					<dim>1</dim>
					<dim>3</dim>
					<dim>3</dim>
				</port>
			</input>
			<output>
				<port id="2" precision="FP32" names="693">
					<dim>1</dim>
					<dim>64</dim>
					<dim>52</dim>
					<dim>52</dim>
				</port>
			</output>
		</layer>
		<layer id="253" name="Constant_19982" type="Const" version="opset1">
			<data element_type="f32" shape="1, 64, 1, 1" offset="600152" size="256" />
			<output>
				<port id="0" precision="FP32">
					<dim>1</dim>
					<dim>64</dim>
					<dim>1</dim>
					<dim>1</dim>
				</port>
			</output>
		</layer>
		<layer id="254" name="694" type="Add" version="opset1">
			<data auto_broadcast="numpy" />
			<input>
				<port id="0" precision="FP32">
					<dim>1</dim>
					<dim>64</dim>
					<dim>52</dim>
					<dim>52</dim>
				</port>
				<port id="1" precision="FP32">
					<dim>1</dim>
					<dim>64</dim>
					<dim>1</dim>
					<dim>1</dim>
				</port>
			</input>
			<output>
				<port id="2" precision="FP32" names="694">
					<dim>1</dim>
					<dim>64</dim>
					<dim>52</dim>
					<dim>52</dim>
				</port>
			</output>
		</layer>
		<layer id="255" name="695" type="ReLU" version="opset1">
			<input>
				<port id="0" precision="FP32">
					<dim>1</dim>
					<dim>64</dim>
					<dim>52</dim>
					<dim>52</dim>
				</port>
			</input>
			<output>
				<port id="1" precision="FP32" names="695">
					<dim>1</dim>
					<dim>64</dim>
					<dim>52</dim>
					<dim>52</dim>
				</port>
			</output>
		</layer>
		<layer id="256" name="conv2.1.conv2.3.layers.2.conv1.weight" type="Const" version="opset1">
			<data element_type="f32" shape="64, 64, 1, 1" offset="600408" size="16384" />
			<output>
				<port id="0" precision="FP32" names="conv2.1.conv2.3.layers.2.conv1.weight">
					<dim>64</dim>
					<dim>64</dim>
					<dim>1</dim>
					<dim>1</dim>
				</port>
			</output>
		</layer>
		<layer id="257" name="696" type="Convolution" version="opset1">
			<data strides="1, 1" dilations="1, 1" pads_begin="0, 0" pads_end="0, 0" auto_pad="explicit" />
			<input>
				<port id="0" precision="FP32">
					<dim>1</dim>
					<dim>64</dim>
					<dim>52</dim>
					<dim>52</dim>
				</port>
				<port id="1" precision="FP32">
					<dim>64</dim>
					<dim>64</dim>
					<dim>1</dim>
					<dim>1</dim>
				</port>
			</input>
			<output>
				<port id="2" precision="FP32" names="696">
					<dim>1</dim>
					<dim>64</dim>
					<dim>52</dim>
					<dim>52</dim>
				</port>
			</output>
		</layer>
		<layer id="258" name="Multiply_20443" type="Const" version="opset1">
			<data element_type="f32" shape="64, 1, 1, 3, 3" offset="616792" size="2304" />
			<output>
				<port id="0" precision="FP32">
					<dim>64</dim>
					<dim>1</dim>
					<dim>1</dim>
					<dim>3</dim>
					<dim>3</dim>
				</port>
			</output>
		</layer>
		<layer id="259" name="Multiply_19984" type="GroupConvolution" version="opset1">
			<data strides="1, 1" pads_begin="1, 1" pads_end="1, 1" dilations="1, 1" auto_pad="explicit" />
			<input>
				<port id="0" precision="FP32">
					<dim>1</dim>
					<dim>64</dim>
					<dim>52</dim>
					<dim>52</dim>
				</port>
				<port id="1" precision="FP32">
					<dim>64</dim>
					<dim>1</dim>
					<dim>1</dim>
					<dim>3</dim>
					<dim>3</dim>
				</port>
			</input>
			<output>
				<port id="2" precision="FP32" names="697">
					<dim>1</dim>
					<dim>64</dim>
					<dim>52</dim>
					<dim>52</dim>
				</port>
			</output>
		</layer>
		<layer id="260" name="Constant_19989" type="Const" version="opset1">
			<data element_type="f32" shape="1, 64, 1, 1" offset="619096" size="256" />
			<output>
				<port id="0" precision="FP32">
					<dim>1</dim>
					<dim>64</dim>
					<dim>1</dim>
					<dim>1</dim>
				</port>
			</output>
		</layer>
		<layer id="261" name="698" type="Add" version="opset1">
			<data auto_broadcast="numpy" />
			<input>
				<port id="0" precision="FP32">
					<dim>1</dim>
					<dim>64</dim>
					<dim>52</dim>
					<dim>52</dim>
				</port>
				<port id="1" precision="FP32">
					<dim>1</dim>
					<dim>64</dim>
					<dim>1</dim>
					<dim>1</dim>
				</port>
			</input>
			<output>
				<port id="2" precision="FP32" names="698">
					<dim>1</dim>
					<dim>64</dim>
					<dim>52</dim>
					<dim>52</dim>
				</port>
			</output>
		</layer>
		<layer id="262" name="699" type="ReLU" version="opset1">
			<input>
				<port id="0" precision="FP32">
					<dim>1</dim>
					<dim>64</dim>
					<dim>52</dim>
					<dim>52</dim>
				</port>
			</input>
			<output>
				<port id="1" precision="FP32" names="699">
					<dim>1</dim>
					<dim>64</dim>
					<dim>52</dim>
					<dim>52</dim>
				</port>
			</output>
		</layer>
		<layer id="263" name="conv2.1.conv2.3.layers.3.conv1.weight" type="Const" version="opset1">
			<data element_type="f32" shape="64, 64, 1, 1" offset="619352" size="16384" />
			<output>
				<port id="0" precision="FP32" names="conv2.1.conv2.3.layers.3.conv1.weight">
					<dim>64</dim>
					<dim>64</dim>
					<dim>1</dim>
					<dim>1</dim>
				</port>
			</output>
		</layer>
		<layer id="264" name="700" type="Convolution" version="opset1">
			<data strides="1, 1" dilations="1, 1" pads_begin="0, 0" pads_end="0, 0" auto_pad="explicit" />
			<input>
				<port id="0" precision="FP32">
					<dim>1</dim>
					<dim>64</dim>
					<dim>52</dim>
					<dim>52</dim>
				</port>
				<port id="1" precision="FP32">
					<dim>64</dim>
					<dim>64</dim>
					<dim>1</dim>
					<dim>1</dim>
				</port>
			</input>
			<output>
				<port id="2" precision="FP32" names="700">
					<dim>1</dim>
					<dim>64</dim>
					<dim>52</dim>
					<dim>52</dim>
				</port>
			</output>
		</layer>
		<layer id="265" name="Multiply_20446" type="Const" version="opset1">
			<data element_type="f32" shape="64, 1, 1, 3, 3" offset="635736" size="2304" />
			<output>
				<port id="0" precision="FP32">
					<dim>64</dim>
					<dim>1</dim>
					<dim>1</dim>
					<dim>3</dim>
					<dim>3</dim>
				</port>
			</output>
		</layer>
		<layer id="266" name="Multiply_19991" type="GroupConvolution" version="opset1">
			<data strides="1, 1" pads_begin="1, 1" pads_end="1, 1" dilations="1, 1" auto_pad="explicit" />
			<input>
				<port id="0" precision="FP32">
					<dim>1</dim>
					<dim>64</dim>
					<dim>52</dim>
					<dim>52</dim>
				</port>
				<port id="1" precision="FP32">
					<dim>64</dim>
					<dim>1</dim>
					<dim>1</dim>
					<dim>3</dim>
					<dim>3</dim>
				</port>
			</input>
			<output>
				<port id="2" precision="FP32" names="701">
					<dim>1</dim>
					<dim>64</dim>
					<dim>52</dim>
					<dim>52</dim>
				</port>
			</output>
		</layer>
		<layer id="267" name="Constant_19996" type="Const" version="opset1">
			<data element_type="f32" shape="1, 64, 1, 1" offset="638040" size="256" />
			<output>
				<port id="0" precision="FP32">
					<dim>1</dim>
					<dim>64</dim>
					<dim>1</dim>
					<dim>1</dim>
				</port>
			</output>
		</layer>
		<layer id="268" name="702" type="Add" version="opset1">
			<data auto_broadcast="numpy" />
			<input>
				<port id="0" precision="FP32">
					<dim>1</dim>
					<dim>64</dim>
					<dim>52</dim>
					<dim>52</dim>
				</port>
				<port id="1" precision="FP32">
					<dim>1</dim>
					<dim>64</dim>
					<dim>1</dim>
					<dim>1</dim>
				</port>
			</input>
			<output>
				<port id="2" precision="FP32" names="702">
					<dim>1</dim>
					<dim>64</dim>
					<dim>52</dim>
					<dim>52</dim>
				</port>
			</output>
		</layer>
		<layer id="269" name="703" type="ReLU" version="opset1">
			<input>
				<port id="0" precision="FP32">
					<dim>1</dim>
					<dim>64</dim>
					<dim>52</dim>
					<dim>52</dim>
				</port>
			</input>
			<output>
				<port id="1" precision="FP32" names="703">
					<dim>1</dim>
					<dim>64</dim>
					<dim>52</dim>
					<dim>52</dim>
				</port>
			</output>
		</layer>
		<layer id="270" name="Range_2070" type="Const" version="opset1">
			<data element_type="i64" shape="2" offset="16" size="16" />
			<output>
				<port id="0" precision="I64">
					<dim>2</dim>
				</port>
			</output>
		</layer>
		<layer id="271" name="704" type="ReduceMean" version="opset1">
			<data keep_dims="true" />
			<input>
				<port id="0" precision="FP32">
					<dim>1</dim>
					<dim>64</dim>
					<dim>52</dim>
					<dim>52</dim>
				</port>
				<port id="1" precision="I64">
					<dim>2</dim>
				</port>
			</input>
			<output>
				<port id="2" precision="FP32" names="704">
					<dim>1</dim>
					<dim>64</dim>
					<dim>1</dim>
					<dim>1</dim>
				</port>
			</output>
		</layer>
		<layer id="272" name="705/WithoutBiases" type="Convolution" version="opset1">
			<data strides="1, 1" dilations="1, 1" pads_begin="0, 0" pads_end="0, 0" auto_pad="explicit" />
			<input>
				<port id="0" precision="FP32">
					<dim>1</dim>
					<dim>64</dim>
					<dim>1</dim>
					<dim>1</dim>
				</port>
				<port id="1" precision="FP32">
					<dim>4</dim>
					<dim>64</dim>
					<dim>1</dim>
					<dim>1</dim>
				</port>
			</input>
			<output>
				<port id="2" precision="FP32">
					<dim>1</dim>
					<dim>4</dim>
					<dim>1</dim>
					<dim>1</dim>
				</port>
			</output>
		</layer>
		<layer id="273" name="Reshape_2088" type="Const" version="opset1">
			<data element_type="f32" shape="1, 4, 1, 1" offset="466504" size="16" />
			<output>
				<port id="0" precision="FP32">
					<dim>1</dim>
					<dim>4</dim>
					<dim>1</dim>
					<dim>1</dim>
				</port>
			</output>
		</layer>
		<layer id="274" name="705" type="Add" version="opset1">
			<data auto_broadcast="numpy" />
			<input>
				<port id="0" precision="FP32">
					<dim>1</dim>
					<dim>4</dim>
					<dim>1</dim>
					<dim>1</dim>
				</port>
				<port id="1" precision="FP32">
					<dim>1</dim>
					<dim>4</dim>
					<dim>1</dim>
					<dim>1</dim>
				</port>
			</input>
			<output>
				<port id="2" precision="FP32" names="705">
					<dim>1</dim>
					<dim>4</dim>
					<dim>1</dim>
					<dim>1</dim>
				</port>
			</output>
		</layer>
		<layer id="275" name="706" type="ReLU" version="opset1">
			<input>
				<port id="0" precision="FP32">
					<dim>1</dim>
					<dim>4</dim>
					<dim>1</dim>
					<dim>1</dim>
				</port>
			</input>
			<output>
				<port id="1" precision="FP32" names="706">
					<dim>1</dim>
					<dim>4</dim>
					<dim>1</dim>
					<dim>1</dim>
				</port>
			</output>
		</layer>
		<layer id="276" name="707/WithoutBiases" type="Convolution" version="opset1">
			<data strides="1, 1" dilations="1, 1" pads_begin="0, 0" pads_end="0, 0" auto_pad="explicit" />
			<input>
				<port id="0" precision="FP32">
					<dim>1</dim>
					<dim>4</dim>
					<dim>1</dim>
					<dim>1</dim>
				</port>
				<port id="1" precision="FP32">
					<dim>64</dim>
					<dim>4</dim>
					<dim>1</dim>
					<dim>1</dim>
				</port>
			</input>
			<output>
				<port id="2" precision="FP32">
					<dim>1</dim>
					<dim>64</dim>
					<dim>1</dim>
					<dim>1</dim>
				</port>
			</output>
		</layer>
		<layer id="277" name="Reshape_2105" type="Const" version="opset1">
			<data element_type="f32" shape="1, 64, 1, 1" offset="467544" size="256" />
			<output>
				<port id="0" precision="FP32">
					<dim>1</dim>
					<dim>64</dim>
					<dim>1</dim>
					<dim>1</dim>
				</port>
			</output>
		</layer>
		<layer id="278" name="707" type="Add" version="opset1">
			<data auto_broadcast="numpy" />
			<input>
				<port id="0" precision="FP32">
					<dim>1</dim>
					<dim>64</dim>
					<dim>1</dim>
					<dim>1</dim>
				</port>
				<port id="1" precision="FP32">
					<dim>1</dim>
					<dim>64</dim>
					<dim>1</dim>
					<dim>1</dim>
				</port>
			</input>
			<output>
				<port id="2" precision="FP32" names="707">
					<dim>1</dim>
					<dim>64</dim>
					<dim>1</dim>
					<dim>1</dim>
				</port>
			</output>
		</layer>
		<layer id="279" name="708" type="Sigmoid" version="opset1">
			<input>
				<port id="0" precision="FP32">
					<dim>1</dim>
					<dim>64</dim>
					<dim>1</dim>
					<dim>1</dim>
				</port>
			</input>
			<output>
				<port id="1" precision="FP32" names="708">
					<dim>1</dim>
					<dim>64</dim>
					<dim>1</dim>
					<dim>1</dim>
				</port>
			</output>
		</layer>
		<layer id="280" name="709" type="Multiply" version="opset1">
			<data auto_broadcast="numpy" />
			<input>
				<port id="0" precision="FP32">
					<dim>1</dim>
					<dim>64</dim>
					<dim>52</dim>
					<dim>52</dim>
				</port>
				<port id="1" precision="FP32">
					<dim>1</dim>
					<dim>64</dim>
					<dim>1</dim>
					<dim>1</dim>
				</port>
			</input>
			<output>
				<port id="2" precision="FP32" names="709">
					<dim>1</dim>
					<dim>64</dim>
					<dim>52</dim>
					<dim>52</dim>
				</port>
			</output>
		</layer>
		<layer id="281" name="710" type="Add" version="opset1">
			<data auto_broadcast="numpy" />
			<input>
				<port id="0" precision="FP32">
					<dim>1</dim>
					<dim>64</dim>
					<dim>52</dim>
					<dim>52</dim>
				</port>
				<port id="1" precision="FP32">
					<dim>1</dim>
					<dim>64</dim>
					<dim>52</dim>
					<dim>52</dim>
				</port>
			</input>
			<output>
				<port id="2" precision="FP32" names="710">
					<dim>1</dim>
					<dim>64</dim>
					<dim>52</dim>
					<dim>52</dim>
				</port>
			</output>
		</layer>
		<layer id="282" name="conv2.1.conv3.conv.weight" type="Const" version="opset1">
			<data element_type="f32" shape="256, 64, 1, 1" offset="638296" size="65536" />
			<output>
				<port id="0" precision="FP32" names="conv2.1.conv3.conv.weight">
					<dim>256</dim>
					<dim>64</dim>
					<dim>1</dim>
					<dim>1</dim>
				</port>
			</output>
		</layer>
		<layer id="283" name="711" type="Convolution" version="opset1">
			<data strides="1, 1" dilations="1, 1" pads_begin="0, 0" pads_end="0, 0" auto_pad="explicit" />
			<input>
				<port id="0" precision="FP32">
					<dim>1</dim>
					<dim>64</dim>
					<dim>52</dim>
					<dim>52</dim>
				</port>
				<port id="1" precision="FP32">
					<dim>256</dim>
					<dim>64</dim>
					<dim>1</dim>
					<dim>1</dim>
				</port>
			</input>
			<output>
				<port id="2" precision="FP32" names="711">
					<dim>1</dim>
					<dim>256</dim>
					<dim>52</dim>
					<dim>52</dim>
				</port>
			</output>
		</layer>
		<layer id="284" name="Constant_2114" type="Const" version="opset1">
			<data element_type="i64" shape="2" offset="16" size="16" />
			<output>
				<port id="0" precision="I64">
					<dim>2</dim>
				</port>
			</output>
		</layer>
		<layer id="285" name="MVN_2115" type="MVN" version="opset6">
			<data eps="9.9999997473787516e-06" normalize_variance="true" eps_mode="INSIDE_SQRT" />
			<input>
				<port id="0" precision="FP32">
					<dim>1</dim>
					<dim>256</dim>
					<dim>52</dim>
					<dim>52</dim>
				</port>
				<port id="1" precision="I64">
					<dim>2</dim>
				</port>
			</input>
			<output>
				<port id="2" precision="FP32">
					<dim>1</dim>
					<dim>256</dim>
					<dim>52</dim>
					<dim>52</dim>
				</port>
			</output>
		</layer>
		<layer id="286" name="Reshape_2127" type="Const" version="opset1">
			<data element_type="f32" shape="1, 256, 1, 1" offset="703832" size="1024" />
			<output>
				<port id="0" precision="FP32">
					<dim>1</dim>
					<dim>256</dim>
					<dim>1</dim>
					<dim>1</dim>
				</port>
			</output>
		</layer>
		<layer id="287" name="Multiply_2130" type="Multiply" version="opset1">
			<data auto_broadcast="numpy" />
			<input>
				<port id="0" precision="FP32">
					<dim>1</dim>
					<dim>256</dim>
					<dim>52</dim>
					<dim>52</dim>
				</port>
				<port id="1" precision="FP32">
					<dim>1</dim>
					<dim>256</dim>
					<dim>1</dim>
					<dim>1</dim>
				</port>
			</input>
			<output>
				<port id="2" precision="FP32">
					<dim>1</dim>
					<dim>256</dim>
					<dim>52</dim>
					<dim>52</dim>
				</port>
			</output>
		</layer>
		<layer id="288" name="Reshape_2140" type="Const" version="opset1">
			<data element_type="f32" shape="1, 256, 1, 1" offset="704856" size="1024" />
			<output>
				<port id="0" precision="FP32">
					<dim>1</dim>
					<dim>256</dim>
					<dim>1</dim>
					<dim>1</dim>
				</port>
			</output>
		</layer>
		<layer id="289" name="712" type="Add" version="opset1">
			<data auto_broadcast="numpy" />
			<input>
				<port id="0" precision="FP32">
					<dim>1</dim>
					<dim>256</dim>
					<dim>52</dim>
					<dim>52</dim>
				</port>
				<port id="1" precision="FP32">
					<dim>1</dim>
					<dim>256</dim>
					<dim>1</dim>
					<dim>1</dim>
				</port>
			</input>
			<output>
				<port id="2" precision="FP32" names="712">
					<dim>1</dim>
					<dim>256</dim>
					<dim>52</dim>
					<dim>52</dim>
				</port>
			</output>
		</layer>
		<layer id="290" name="713" type="Add" version="opset1">
			<data auto_broadcast="numpy" />
			<input>
				<port id="0" precision="FP32">
					<dim>1</dim>
					<dim>256</dim>
					<dim>52</dim>
					<dim>52</dim>
				</port>
				<port id="1" precision="FP32">
					<dim>1</dim>
					<dim>256</dim>
					<dim>52</dim>
					<dim>52</dim>
				</port>
			</input>
			<output>
				<port id="2" precision="FP32" names="713">
					<dim>1</dim>
					<dim>256</dim>
					<dim>52</dim>
					<dim>52</dim>
				</port>
			</output>
		</layer>
		<layer id="291" name="714" type="ReLU" version="opset1">
			<input>
				<port id="0" precision="FP32">
					<dim>1</dim>
					<dim>256</dim>
					<dim>52</dim>
					<dim>52</dim>
				</port>
			</input>
			<output>
				<port id="1" precision="FP32" names="714">
					<dim>1</dim>
					<dim>256</dim>
					<dim>52</dim>
					<dim>52</dim>
				</port>
			</output>
		</layer>
		<layer id="292" name="Multiply_20449" type="Const" version="opset1">
			<data element_type="f32" shape="256, 256, 1, 1" offset="705880" size="262144" />
			<output>
				<port id="0" precision="FP32">
					<dim>256</dim>
					<dim>256</dim>
					<dim>1</dim>
					<dim>1</dim>
				</port>
			</output>
		</layer>
		<layer id="293" name="Multiply_19998" type="Convolution" version="opset1">
			<data strides="1, 1" dilations="1, 1" pads_begin="0, 0" pads_end="0, 0" auto_pad="explicit" />
			<input>
				<port id="0" precision="FP32">
					<dim>1</dim>
					<dim>256</dim>
					<dim>52</dim>
					<dim>52</dim>
				</port>
				<port id="1" precision="FP32">
					<dim>256</dim>
					<dim>256</dim>
					<dim>1</dim>
					<dim>1</dim>
				</port>
			</input>
			<output>
				<port id="2" precision="FP32">
					<dim>1</dim>
					<dim>256</dim>
					<dim>52</dim>
					<dim>52</dim>
				</port>
			</output>
		</layer>
		<layer id="294" name="Constant_20003" type="Const" version="opset1">
			<data element_type="f32" shape="1, 256, 1, 1" offset="968024" size="1024" />
			<output>
				<port id="0" precision="FP32">
					<dim>1</dim>
					<dim>256</dim>
					<dim>1</dim>
					<dim>1</dim>
				</port>
			</output>
		</layer>
		<layer id="295" name="716" type="Add" version="opset1">
			<data auto_broadcast="numpy" />
			<input>
				<port id="0" precision="FP32">
					<dim>1</dim>
					<dim>256</dim>
					<dim>52</dim>
					<dim>52</dim>
				</port>
				<port id="1" precision="FP32">
					<dim>1</dim>
					<dim>256</dim>
					<dim>1</dim>
					<dim>1</dim>
				</port>
			</input>
			<output>
				<port id="2" precision="FP32" names="716">
					<dim>1</dim>
					<dim>256</dim>
					<dim>52</dim>
					<dim>52</dim>
				</port>
			</output>
		</layer>
		<layer id="296" name="717" type="ReLU" version="opset1">
			<input>
				<port id="0" precision="FP32">
					<dim>1</dim>
					<dim>256</dim>
					<dim>52</dim>
					<dim>52</dim>
				</port>
			</input>
			<output>
				<port id="1" precision="FP32" names="717,718">
					<dim>1</dim>
					<dim>256</dim>
					<dim>52</dim>
					<dim>52</dim>
				</port>
			</output>
		</layer>
		<layer id="297" name="719" type="AvgPool" version="opset1">
			<data kernel="2, 2" strides="2, 2" pads_begin="0, 0" pads_end="0, 0" exclude-pad="true" auto_pad="explicit" rounding_type="floor" />
			<input>
				<port id="0" precision="FP32">
					<dim>1</dim>
					<dim>256</dim>
					<dim>52</dim>
					<dim>52</dim>
				</port>
			</input>
			<output>
				<port id="1" precision="FP32" names="719">
					<dim>1</dim>
					<dim>256</dim>
					<dim>26</dim>
					<dim>26</dim>
				</port>
			</output>
		</layer>
		<layer id="298" name="Multiply_20453" type="Const" version="opset1">
			<data element_type="f32" shape="96, 256, 1, 1" offset="969048" size="98304" />
			<output>
				<port id="0" precision="FP32">
					<dim>96</dim>
					<dim>256</dim>
					<dim>1</dim>
					<dim>1</dim>
				</port>
			</output>
		</layer>
		<layer id="299" name="Multiply_20005" type="Convolution" version="opset1">
			<data strides="1, 1" dilations="1, 1" pads_begin="0, 0" pads_end="0, 0" auto_pad="explicit" />
			<input>
				<port id="0" precision="FP32">
					<dim>1</dim>
					<dim>256</dim>
					<dim>26</dim>
					<dim>26</dim>
				</port>
				<port id="1" precision="FP32">
					<dim>96</dim>
					<dim>256</dim>
					<dim>1</dim>
					<dim>1</dim>
				</port>
			</input>
			<output>
				<port id="2" precision="FP32">
					<dim>1</dim>
					<dim>96</dim>
					<dim>26</dim>
					<dim>26</dim>
				</port>
			</output>
		</layer>
		<layer id="300" name="Constant_20010" type="Const" version="opset1">
			<data element_type="f32" shape="1, 96, 1, 1" offset="1067352" size="384" />
			<output>
				<port id="0" precision="FP32">
					<dim>1</dim>
					<dim>96</dim>
					<dim>1</dim>
					<dim>1</dim>
				</port>
			</output>
		</layer>
		<layer id="301" name="723" type="Add" version="opset1">
			<data auto_broadcast="numpy" />
			<input>
				<port id="0" precision="FP32">
					<dim>1</dim>
					<dim>96</dim>
					<dim>26</dim>
					<dim>26</dim>
				</port>
				<port id="1" precision="FP32">
					<dim>1</dim>
					<dim>96</dim>
					<dim>1</dim>
					<dim>1</dim>
				</port>
			</input>
			<output>
				<port id="2" precision="FP32" names="723">
					<dim>1</dim>
					<dim>96</dim>
					<dim>26</dim>
					<dim>26</dim>
				</port>
			</output>
		</layer>
		<layer id="302" name="724" type="ReLU" version="opset1">
			<input>
				<port id="0" precision="FP32">
					<dim>1</dim>
					<dim>96</dim>
					<dim>26</dim>
					<dim>26</dim>
				</port>
			</input>
			<output>
				<port id="1" precision="FP32" names="724">
					<dim>1</dim>
					<dim>96</dim>
					<dim>26</dim>
					<dim>26</dim>
				</port>
			</output>
		</layer>
		<layer id="303" name="conv3.0.conv2.0.layers.0.conv1.weight" type="Const" version="opset1">
			<data element_type="f32" shape="96, 96, 1, 1" offset="1067736" size="36864" />
			<output>
				<port id="0" precision="FP32" names="conv3.0.conv2.0.layers.0.conv1.weight">
					<dim>96</dim>
					<dim>96</dim>
					<dim>1</dim>
					<dim>1</dim>
				</port>
			</output>
		</layer>
		<layer id="304" name="725" type="Convolution" version="opset1">
			<data strides="1, 1" dilations="1, 1" pads_begin="0, 0" pads_end="0, 0" auto_pad="explicit" />
			<input>
				<port id="0" precision="FP32">
					<dim>1</dim>
					<dim>96</dim>
					<dim>26</dim>
					<dim>26</dim>
				</port>
				<port id="1" precision="FP32">
					<dim>96</dim>
					<dim>96</dim>
					<dim>1</dim>
					<dim>1</dim>
				</port>
			</input>
			<output>
				<port id="2" precision="FP32" names="725">
					<dim>1</dim>
					<dim>96</dim>
					<dim>26</dim>
					<dim>26</dim>
				</port>
			</output>
		</layer>
		<layer id="305" name="Multiply_20457" type="Const" version="opset1">
			<data element_type="f32" shape="96, 1, 1, 3, 3" offset="1104600" size="3456" />
			<output>
				<port id="0" precision="FP32">
					<dim>96</dim>
					<dim>1</dim>
					<dim>1</dim>
					<dim>3</dim>
					<dim>3</dim>
				</port>
			</output>
		</layer>
		<layer id="306" name="Multiply_20012" type="GroupConvolution" version="opset1">
			<data strides="1, 1" pads_begin="1, 1" pads_end="1, 1" dilations="1, 1" auto_pad="explicit" />
			<input>
				<port id="0" precision="FP32">
					<dim>1</dim>
					<dim>96</dim>
					<dim>26</dim>
					<dim>26</dim>
				</port>
				<port id="1" precision="FP32">
					<dim>96</dim>
					<dim>1</dim>
					<dim>1</dim>
					<dim>3</dim>
					<dim>3</dim>
				</port>
			</input>
			<output>
				<port id="2" precision="FP32" names="726">
					<dim>1</dim>
					<dim>96</dim>
					<dim>26</dim>
					<dim>26</dim>
				</port>
			</output>
		</layer>
		<layer id="307" name="Constant_20017" type="Const" version="opset1">
			<data element_type="f32" shape="1, 96, 1, 1" offset="1108056" size="384" />
			<output>
				<port id="0" precision="FP32">
					<dim>1</dim>
					<dim>96</dim>
					<dim>1</dim>
					<dim>1</dim>
				</port>
			</output>
		</layer>
		<layer id="308" name="727" type="Add" version="opset1">
			<data auto_broadcast="numpy" />
			<input>
				<port id="0" precision="FP32">
					<dim>1</dim>
					<dim>96</dim>
					<dim>26</dim>
					<dim>26</dim>
				</port>
				<port id="1" precision="FP32">
					<dim>1</dim>
					<dim>96</dim>
					<dim>1</dim>
					<dim>1</dim>
				</port>
			</input>
			<output>
				<port id="2" precision="FP32" names="727">
					<dim>1</dim>
					<dim>96</dim>
					<dim>26</dim>
					<dim>26</dim>
				</port>
			</output>
		</layer>
		<layer id="309" name="728" type="ReLU" version="opset1">
			<input>
				<port id="0" precision="FP32">
					<dim>1</dim>
					<dim>96</dim>
					<dim>26</dim>
					<dim>26</dim>
				</port>
			</input>
			<output>
				<port id="1" precision="FP32" names="728">
					<dim>1</dim>
					<dim>96</dim>
					<dim>26</dim>
					<dim>26</dim>
				</port>
			</output>
		</layer>
		<layer id="310" name="Range_2221" type="Const" version="opset1">
			<data element_type="i64" shape="2" offset="16" size="16" />
			<output>
				<port id="0" precision="I64">
					<dim>2</dim>
				</port>
			</output>
		</layer>
		<layer id="311" name="729" type="ReduceMean" version="opset1">
			<data keep_dims="true" />
			<input>
				<port id="0" precision="FP32">
					<dim>1</dim>
					<dim>96</dim>
					<dim>26</dim>
					<dim>26</dim>
				</port>
				<port id="1" precision="I64">
					<dim>2</dim>
				</port>
			</input>
			<output>
				<port id="2" precision="FP32" names="729">
					<dim>1</dim>
					<dim>96</dim>
					<dim>1</dim>
					<dim>1</dim>
				</port>
			</output>
		</layer>
		<layer id="312" name="conv3.0.gate.fc1.weight" type="Const" version="opset1">
			<data element_type="f32" shape="6, 96, 1, 1" offset="1108440" size="2304" />
			<output>
				<port id="0" precision="FP32" names="conv3.0.gate.fc1.weight">
					<dim>6</dim>
					<dim>96</dim>
					<dim>1</dim>
					<dim>1</dim>
				</port>
			</output>
		</layer>
		<layer id="313" name="730/WithoutBiases" type="Convolution" version="opset1">
			<data strides="1, 1" dilations="1, 1" pads_begin="0, 0" pads_end="0, 0" auto_pad="explicit" />
			<input>
				<port id="0" precision="FP32">
					<dim>1</dim>
					<dim>96</dim>
					<dim>1</dim>
					<dim>1</dim>
				</port>
				<port id="1" precision="FP32">
					<dim>6</dim>
					<dim>96</dim>
					<dim>1</dim>
					<dim>1</dim>
				</port>
			</input>
			<output>
				<port id="2" precision="FP32">
					<dim>1</dim>
					<dim>6</dim>
					<dim>1</dim>
					<dim>1</dim>
				</port>
			</output>
		</layer>
		<layer id="314" name="Reshape_2239" type="Const" version="opset1">
			<data element_type="f32" shape="1, 6, 1, 1" offset="1110744" size="24" />
			<output>
				<port id="0" precision="FP32">
					<dim>1</dim>
					<dim>6</dim>
					<dim>1</dim>
					<dim>1</dim>
				</port>
			</output>
		</layer>
		<layer id="315" name="730" type="Add" version="opset1">
			<data auto_broadcast="numpy" />
			<input>
				<port id="0" precision="FP32">
					<dim>1</dim>
					<dim>6</dim>
					<dim>1</dim>
					<dim>1</dim>
				</port>
				<port id="1" precision="FP32">
					<dim>1</dim>
					<dim>6</dim>
					<dim>1</dim>
					<dim>1</dim>
				</port>
			</input>
			<output>
				<port id="2" precision="FP32" names="730">
					<dim>1</dim>
					<dim>6</dim>
					<dim>1</dim>
					<dim>1</dim>
				</port>
			</output>
		</layer>
		<layer id="316" name="731" type="ReLU" version="opset1">
			<input>
				<port id="0" precision="FP32">
					<dim>1</dim>
					<dim>6</dim>
					<dim>1</dim>
					<dim>1</dim>
				</port>
			</input>
			<output>
				<port id="1" precision="FP32" names="731">
					<dim>1</dim>
					<dim>6</dim>
					<dim>1</dim>
					<dim>1</dim>
				</port>
			</output>
		</layer>
		<layer id="317" name="conv3.0.gate.fc2.weight" type="Const" version="opset1">
			<data element_type="f32" shape="96, 6, 1, 1" offset="1110768" size="2304" />
			<output>
				<port id="0" precision="FP32" names="conv3.0.gate.fc2.weight">
					<dim>96</dim>
					<dim>6</dim>
					<dim>1</dim>
					<dim>1</dim>
				</port>
			</output>
		</layer>
		<layer id="318" name="732/WithoutBiases" type="Convolution" version="opset1">
			<data strides="1, 1" dilations="1, 1" pads_begin="0, 0" pads_end="0, 0" auto_pad="explicit" />
			<input>
				<port id="0" precision="FP32">
					<dim>1</dim>
					<dim>6</dim>
					<dim>1</dim>
					<dim>1</dim>
				</port>
				<port id="1" precision="FP32">
					<dim>96</dim>
					<dim>6</dim>
					<dim>1</dim>
					<dim>1</dim>
				</port>
			</input>
			<output>
				<port id="2" precision="FP32">
					<dim>1</dim>
					<dim>96</dim>
					<dim>1</dim>
					<dim>1</dim>
				</port>
			</output>
		</layer>
		<layer id="319" name="Reshape_2256" type="Const" version="opset1">
			<data element_type="f32" shape="1, 96, 1, 1" offset="1113072" size="384" />
			<output>
				<port id="0" precision="FP32">
					<dim>1</dim>
					<dim>96</dim>
					<dim>1</dim>
					<dim>1</dim>
				</port>
			</output>
		</layer>
		<layer id="320" name="732" type="Add" version="opset1">
			<data auto_broadcast="numpy" />
			<input>
				<port id="0" precision="FP32">
					<dim>1</dim>
					<dim>96</dim>
					<dim>1</dim>
					<dim>1</dim>
				</port>
				<port id="1" precision="FP32">
					<dim>1</dim>
					<dim>96</dim>
					<dim>1</dim>
					<dim>1</dim>
				</port>
			</input>
			<output>
				<port id="2" precision="FP32" names="732">
					<dim>1</dim>
					<dim>96</dim>
					<dim>1</dim>
					<dim>1</dim>
				</port>
			</output>
		</layer>
		<layer id="321" name="733" type="Sigmoid" version="opset1">
			<input>
				<port id="0" precision="FP32">
					<dim>1</dim>
					<dim>96</dim>
					<dim>1</dim>
					<dim>1</dim>
				</port>
			</input>
			<output>
				<port id="1" precision="FP32" names="733">
					<dim>1</dim>
					<dim>96</dim>
					<dim>1</dim>
					<dim>1</dim>
				</port>
			</output>
		</layer>
		<layer id="322" name="734" type="Multiply" version="opset1">
			<data auto_broadcast="numpy" />
			<input>
				<port id="0" precision="FP32">
					<dim>1</dim>
					<dim>96</dim>
					<dim>26</dim>
					<dim>26</dim>
				</port>
				<port id="1" precision="FP32">
					<dim>1</dim>
					<dim>96</dim>
					<dim>1</dim>
					<dim>1</dim>
				</port>
			</input>
			<output>
				<port id="2" precision="FP32" names="734">
					<dim>1</dim>
					<dim>96</dim>
					<dim>26</dim>
					<dim>26</dim>
				</port>
			</output>
		</layer>
		<layer id="323" name="conv3.0.conv2.1.layers.0.conv1.weight" type="Const" version="opset1">
			<data element_type="f32" shape="96, 96, 1, 1" offset="1113456" size="36864" />
			<output>
				<port id="0" precision="FP32" names="conv3.0.conv2.1.layers.0.conv1.weight">
					<dim>96</dim>
					<dim>96</dim>
					<dim>1</dim>
					<dim>1</dim>
				</port>
			</output>
		</layer>
		<layer id="324" name="735" type="Convolution" version="opset1">
			<data strides="1, 1" dilations="1, 1" pads_begin="0, 0" pads_end="0, 0" auto_pad="explicit" />
			<input>
				<port id="0" precision="FP32">
					<dim>1</dim>
					<dim>96</dim>
					<dim>26</dim>
					<dim>26</dim>
				</port>
				<port id="1" precision="FP32">
					<dim>96</dim>
					<dim>96</dim>
					<dim>1</dim>
					<dim>1</dim>
				</port>
			</input>
			<output>
				<port id="2" precision="FP32" names="735">
					<dim>1</dim>
					<dim>96</dim>
					<dim>26</dim>
					<dim>26</dim>
				</port>
			</output>
		</layer>
		<layer id="325" name="Multiply_20460" type="Const" version="opset1">
			<data element_type="f32" shape="96, 1, 1, 3, 3" offset="1150320" size="3456" />
			<output>
				<port id="0" precision="FP32">
					<dim>96</dim>
					<dim>1</dim>
					<dim>1</dim>
					<dim>3</dim>
					<dim>3</dim>
				</port>
			</output>
		</layer>
		<layer id="326" name="Multiply_20019" type="GroupConvolution" version="opset1">
			<data strides="1, 1" pads_begin="1, 1" pads_end="1, 1" dilations="1, 1" auto_pad="explicit" />
			<input>
				<port id="0" precision="FP32">
					<dim>1</dim>
					<dim>96</dim>
					<dim>26</dim>
					<dim>26</dim>
				</port>
				<port id="1" precision="FP32">
					<dim>96</dim>
					<dim>1</dim>
					<dim>1</dim>
					<dim>3</dim>
					<dim>3</dim>
				</port>
			</input>
			<output>
				<port id="2" precision="FP32" names="736">
					<dim>1</dim>
					<dim>96</dim>
					<dim>26</dim>
					<dim>26</dim>
				</port>
			</output>
		</layer>
		<layer id="327" name="Constant_20024" type="Const" version="opset1">
			<data element_type="f32" shape="1, 96, 1, 1" offset="1153776" size="384" />
			<output>
				<port id="0" precision="FP32">
					<dim>1</dim>
					<dim>96</dim>
					<dim>1</dim>
					<dim>1</dim>
				</port>
			</output>
		</layer>
		<layer id="328" name="737" type="Add" version="opset1">
			<data auto_broadcast="numpy" />
			<input>
				<port id="0" precision="FP32">
					<dim>1</dim>
					<dim>96</dim>
					<dim>26</dim>
					<dim>26</dim>
				</port>
				<port id="1" precision="FP32">
					<dim>1</dim>
					<dim>96</dim>
					<dim>1</dim>
					<dim>1</dim>
				</port>
			</input>
			<output>
				<port id="2" precision="FP32" names="737">
					<dim>1</dim>
					<dim>96</dim>
					<dim>26</dim>
					<dim>26</dim>
				</port>
			</output>
		</layer>
		<layer id="329" name="738" type="ReLU" version="opset1">
			<input>
				<port id="0" precision="FP32">
					<dim>1</dim>
					<dim>96</dim>
					<dim>26</dim>
					<dim>26</dim>
				</port>
			</input>
			<output>
				<port id="1" precision="FP32" names="738">
					<dim>1</dim>
					<dim>96</dim>
					<dim>26</dim>
					<dim>26</dim>
				</port>
			</output>
		</layer>
		<layer id="330" name="conv3.0.conv2.1.layers.1.conv1.weight" type="Const" version="opset1">
			<data element_type="f32" shape="96, 96, 1, 1" offset="1154160" size="36864" />
			<output>
				<port id="0" precision="FP32" names="conv3.0.conv2.1.layers.1.conv1.weight">
					<dim>96</dim>
					<dim>96</dim>
					<dim>1</dim>
					<dim>1</dim>
				</port>
			</output>
		</layer>
		<layer id="331" name="739" type="Convolution" version="opset1">
			<data strides="1, 1" dilations="1, 1" pads_begin="0, 0" pads_end="0, 0" auto_pad="explicit" />
			<input>
				<port id="0" precision="FP32">
					<dim>1</dim>
					<dim>96</dim>
					<dim>26</dim>
					<dim>26</dim>
				</port>
				<port id="1" precision="FP32">
					<dim>96</dim>
					<dim>96</dim>
					<dim>1</dim>
					<dim>1</dim>
				</port>
			</input>
			<output>
				<port id="2" precision="FP32" names="739">
					<dim>1</dim>
					<dim>96</dim>
					<dim>26</dim>
					<dim>26</dim>
				</port>
			</output>
		</layer>
		<layer id="332" name="Multiply_20463" type="Const" version="opset1">
			<data element_type="f32" shape="96, 1, 1, 3, 3" offset="1191024" size="3456" />
			<output>
				<port id="0" precision="FP32">
					<dim>96</dim>
					<dim>1</dim>
					<dim>1</dim>
					<dim>3</dim>
					<dim>3</dim>
				</port>
			</output>
		</layer>
		<layer id="333" name="Multiply_20026" type="GroupConvolution" version="opset1">
			<data strides="1, 1" pads_begin="1, 1" pads_end="1, 1" dilations="1, 1" auto_pad="explicit" />
			<input>
				<port id="0" precision="FP32">
					<dim>1</dim>
					<dim>96</dim>
					<dim>26</dim>
					<dim>26</dim>
				</port>
				<port id="1" precision="FP32">
					<dim>96</dim>
					<dim>1</dim>
					<dim>1</dim>
					<dim>3</dim>
					<dim>3</dim>
				</port>
			</input>
			<output>
				<port id="2" precision="FP32" names="740">
					<dim>1</dim>
					<dim>96</dim>
					<dim>26</dim>
					<dim>26</dim>
				</port>
			</output>
		</layer>
		<layer id="334" name="Constant_20031" type="Const" version="opset1">
			<data element_type="f32" shape="1, 96, 1, 1" offset="1194480" size="384" />
			<output>
				<port id="0" precision="FP32">
					<dim>1</dim>
					<dim>96</dim>
					<dim>1</dim>
					<dim>1</dim>
				</port>
			</output>
		</layer>
		<layer id="335" name="741" type="Add" version="opset1">
			<data auto_broadcast="numpy" />
			<input>
				<port id="0" precision="FP32">
					<dim>1</dim>
					<dim>96</dim>
					<dim>26</dim>
					<dim>26</dim>
				</port>
				<port id="1" precision="FP32">
					<dim>1</dim>
					<dim>96</dim>
					<dim>1</dim>
					<dim>1</dim>
				</port>
			</input>
			<output>
				<port id="2" precision="FP32" names="741">
					<dim>1</dim>
					<dim>96</dim>
					<dim>26</dim>
					<dim>26</dim>
				</port>
			</output>
		</layer>
		<layer id="336" name="742" type="ReLU" version="opset1">
			<input>
				<port id="0" precision="FP32">
					<dim>1</dim>
					<dim>96</dim>
					<dim>26</dim>
					<dim>26</dim>
				</port>
			</input>
			<output>
				<port id="1" precision="FP32" names="742">
					<dim>1</dim>
					<dim>96</dim>
					<dim>26</dim>
					<dim>26</dim>
				</port>
			</output>
		</layer>
		<layer id="337" name="Range_2374" type="Const" version="opset1">
			<data element_type="i64" shape="2" offset="16" size="16" />
			<output>
				<port id="0" precision="I64">
					<dim>2</dim>
				</port>
			</output>
		</layer>
		<layer id="338" name="743" type="ReduceMean" version="opset1">
			<data keep_dims="true" />
			<input>
				<port id="0" precision="FP32">
					<dim>1</dim>
					<dim>96</dim>
					<dim>26</dim>
					<dim>26</dim>
				</port>
				<port id="1" precision="I64">
					<dim>2</dim>
				</port>
			</input>
			<output>
				<port id="2" precision="FP32" names="743">
					<dim>1</dim>
					<dim>96</dim>
					<dim>1</dim>
					<dim>1</dim>
				</port>
			</output>
		</layer>
		<layer id="339" name="744/WithoutBiases" type="Convolution" version="opset1">
			<data strides="1, 1" dilations="1, 1" pads_begin="0, 0" pads_end="0, 0" auto_pad="explicit" />
			<input>
				<port id="0" precision="FP32">
					<dim>1</dim>
					<dim>96</dim>
					<dim>1</dim>
					<dim>1</dim>
				</port>
				<port id="1" precision="FP32">
					<dim>6</dim>
					<dim>96</dim>
					<dim>1</dim>
					<dim>1</dim>
				</port>
			</input>
			<output>
				<port id="2" precision="FP32">
					<dim>1</dim>
					<dim>6</dim>
					<dim>1</dim>
					<dim>1</dim>
				</port>
			</output>
		</layer>
		<layer id="340" name="Reshape_2392" type="Const" version="opset1">
			<data element_type="f32" shape="1, 6, 1, 1" offset="1110744" size="24" />
			<output>
				<port id="0" precision="FP32">
…
		<edge from-layer="202" from-port="1" to-layer="203" to-port="0" />
		<edge from-layer="203" from-port="2" to-layer="205" to-port="0" />
		<edge from-layer="204" from-port="0" to-layer="205" to-port="1" />
		<edge from-layer="205" from-port="2" to-layer="206" to-port="0" />
		<edge from-layer="206" from-port="1" to-layer="207" to-port="1" />
		<edge from-layer="207" from-port="2" to-layer="208" to-port="1" />
		<edge from-layer="208" from-port="2" to-layer="241" to-port="0" />
		<edge from-layer="209" from-port="0" to-layer="210" to-port="1" />
		<edge from-layer="210" from-port="2" to-layer="212" to-port="0" />
		<edge from-layer="211" from-port="0" to-layer="212" to-port="1" />
		<edge from-layer="212" from-port="2" to-layer="214" to-port="0" />
		<edge from-layer="213" from-port="0" to-layer="214" to-port="1" />
		<edge from-layer="214" from-port="2" to-layer="215" to-port="0" />
		<edge from-layer="215" from-port="1" to-layer="217" to-port="0" />
		<edge from-layer="216" from-port="0" to-layer="217" to-port="1" />
		<edge from-layer="217" from-port="2" to-layer="219" to-port="0" />
		<edge from-layer="218" from-port="0" to-layer="219" to-port="1" />
		<edge from-layer="219" from-port="2" to-layer="221" to-port="0" />
		<edge from-layer="220" from-port="0" to-layer="221" to-port="1" />
		<edge from-layer="221" from-port="2" to-layer="222" to-port="0" />
		<edge from-layer="222" from-port="1" to-layer="224" to-port="0" />
		<edge from-layer="223" from-port="0" to-layer="224" to-port="1" />
		<edge from-layer="224" from-port="2" to-layer="226" to-port="0" />
		<edge from-layer="225" from-port="0" to-layer="226" to-port="1" />
		<edge from-layer="226" from-port="2" to-layer="228" to-port="0" />
		<edge from-layer="227" from-port="0" to-layer="228" to-port="1" />
		<edge from-layer="228" from-port="2" to-layer="229" to-port="0" />
		<edge from-layer="229" from-port="1" to-layer="231" to-port="0" />
		<edge from-layer="229" from-port="1" to-layer="240" to-port="0" />
		<edge from-layer="230" from-port="0" to-layer="231" to-port="1" />
		<edge from-layer="231" from-port="2" to-layer="232" to-port="0" />
		<edge from-layer="232" from-port="2" to-layer="234" to-port="0" />
		<edge from-layer="233" from-port="0" to-layer="234" to-port="1" />
		<edge from-layer="234" from-port="2" to-layer="235" to-port="0" />
		<edge from-layer="235" from-port="1" to-layer="236" to-port="0" />
		<edge from-layer="236" from-port="2" to-layer="238" to-port="0" />
		<edge from-layer="237" from-port="0" to-layer="238" to-port="1" />
		<edge from-layer="238" from-port="2" to-layer="239" to-port="0" />
		<edge from-layer="239" from-port="1" to-layer="240" to-port="1" />
		<edge from-layer="240" from-port="2" to-layer="241" to-port="1" />
		<edge from-layer="241" from-port="2" to-layer="281" to-port="0" />
		<edge from-layer="242" from-port="0" to-layer="243" to-port="1" />
		<edge from-layer="243" from-port="2" to-layer="245" to-port="0" />
		<edge from-layer="244" from-port="0" to-layer="245" to-port="1" />
		<edge from-layer="245" from-port="2" to-layer="247" to-port="0" />
		<edge from-layer="246" from-port="0" to-layer="247" to-port="1" />
		<edge from-layer="247" from-port="2" to-layer="248" to-port="0" />
		<edge from-layer="248" from-port="1" to-layer="250" to-port="0" />
		<edge from-layer="249" from-port="0" to-layer="250" to-port="1" />
		<edge from-layer="250" from-port="2" to-layer="252" to-port="0" />
		<edge from-layer="251" from-port="0" to-layer="252" to-port="1" />
		<edge from-layer="252" from-port="2" to-layer="254" to-port="0" />
		<edge from-layer="253" from-port="0" to-layer="254" to-port="1" />
		<edge from-layer="254" from-port="2" to-layer="255" to-port="0" />
		<edge from-layer="255" from-port="1" to-layer="257" to-port="0" />
		<edge from-layer="256" from-port="0" to-layer="257" to-port="1" />
		<edge from-layer="257" from-port="2" to-layer="259" to-port="0" />
		<edge from-layer="258" from-port="0" to-layer="259" to-port="1" />
		<edge from-layer="259" from-port="2" to-layer="261" to-port="0" />
		<edge from-layer="260" from-port="0" to-layer="261" to-port="1" />
		<edge from-layer="261" from-port="2" to-layer="262" to-port="0" />
		<edge from-layer="262" from-port="1" to-layer="264" to-port="0" />
		<edge from-layer="263" from-port="0" to-layer="264" to-port="1" />
		<edge from-layer="264" from-port="2" to-layer="266" to-port="0" />
		<edge from-layer="265" from-port="0" to-layer="266" to-port="1" />
		<edge from-layer="266" from-port="2" to-layer="268" to-port="0" />
		<edge from-layer="267" from-port="0" to-layer="268" to-port="1" />
		<edge from-layer="268" from-port="2" to-layer="269" to-port="0" />
		<edge from-layer="269" from-port="1" to-layer="271" to-port="0" />
		<edge from-layer="269" from-port="1" to-layer="280" to-port="0" />
		<edge from-layer="270" from-port="0" to-layer="271" to-port="1" />
		<edge from-layer="271" from-port="2" to-layer="272" to-port="0" />
		<edge from-layer="272" from-port="2" to-layer="274" to-port="0" />
		<edge from-layer="273" from-port="0" to-layer="274" to-port="1" />
		<edge from-layer="274" from-port="2" to-layer="275" to-port="0" />
		<edge from-layer="275" from-port="1" to-layer="276" to-port="0" />
		<edge from-layer="276" from-port="2" to-layer="278" to-port="0" />
		<edge from-layer="277" from-port="0" to-layer="278" to-port="1" />
		<edge from-layer="278" from-port="2" to-layer="279" to-port="0" />
		<edge from-layer="279" from-port="1" to-layer="280" to-port="1" />
		<edge from-layer="280" from-port="2" to-layer="281" to-port="1" />
		<edge from-layer="281" from-port="2" to-layer="283" to-port="0" />
		<edge from-layer="282" from-port="0" to-layer="283" to-port="1" />
		<edge from-layer="283" from-port="2" to-layer="285" to-port="0" />
		<edge from-layer="284" from-port="0" to-layer="285" to-port="1" />
		<edge from-layer="285" from-port="2" to-layer="287" to-port="0" />
		<edge from-layer="286" from-port="0" to-layer="287" to-port="1" />
		<edge from-layer="287" from-port="2" to-layer="289" to-port="0" />
		<edge from-layer="288" from-port="0" to-layer="289" to-port="1" />
		<edge from-layer="289" from-port="2" to-layer="290" to-port="0" />
		<edge from-layer="290" from-port="2" to-layer="291" to-port="0" />
		<edge from-layer="291" from-port="1" to-layer="293" to-port="0" />
		<edge from-layer="292" from-port="0" to-layer="293" to-port="1" />
		<edge from-layer="293" from-port="2" to-layer="295" to-port="0" />
		<edge from-layer="294" from-port="0" to-layer="295" to-port="1" />
		<edge from-layer="295" from-port="2" to-layer="296" to-port="0" />
		<edge from-layer="296" from-port="1" to-layer="297" to-port="0" />
		<edge from-layer="297" from-port="1" to-layer="299" to-port="0" />
		<edge from-layer="297" from-port="1" to-layer="427" to-port="0" />
		<edge from-layer="298" from-port="0" to-layer="299" to-port="1" />
		<edge from-layer="299" from-port="2" to-layer="301" to-port="0" />
		<edge from-layer="300" from-port="0" to-layer="301" to-port="1" />
		<edge from-layer="301" from-port="2" to-layer="302" to-port="0" />
		<edge from-layer="302" from-port="1" to-layer="304" to-port="0" />
		<edge from-layer="302" from-port="1" to-layer="350" to-port="0" />
		<edge from-layer="302" from-port="1" to-layer="383" to-port="0" />
		<edge from-layer="302" from-port="1" to-layer="324" to-port="0" />
		<edge from-layer="303" from-port="0" to-layer="304" to-port="1" />
		<edge from-layer="304" from-port="2" to-layer="306" to-port="0" />
		<edge from-layer="305" from-port="0" to-layer="306" to-port="1" />
		<edge from-layer="306" from-port="2" to-layer="308" to-port="0" />
		<edge from-layer="307" from-port="0" to-layer="308" to-port="1" />
		<edge from-layer="308" from-port="2" to-layer="309" to-port="0" />
		<edge from-layer="309" from-port="1" to-layer="311" to-port="0" />
		<edge from-layer="309" from-port="1" to-layer="322" to-port="0" />
		<edge from-layer="310" from-port="0" to-layer="311" to-port="1" />
		<edge from-layer="311" from-port="2" to-layer="313" to-port="0" />
		<edge from-layer="312" from-port="0" to-layer="313" to-port="1" />
		<edge from-layer="312" from-port="0" to-layer="412" to-port="1" />
		<edge from-layer="312" from-port="0" to-layer="372" to-port="1" />
		<edge from-layer="312" from-port="0" to-layer="339" to-port="1" />
		<edge from-layer="313" from-port="2" to-layer="315" to-port="0" />
		<edge from-layer="314" from-port="0" to-layer="315" to-port="1" />
		<edge from-layer="315" from-port="2" to-layer="316" to-port="0" />
		<edge from-layer="316" from-port="1" to-layer="318" to-port="0" />
		<edge from-layer="317" from-port="0" to-layer="318" to-port="1" />
		<edge from-layer="317" from-port="0" to-layer="416" to-port="1" />
		<edge from-layer="317" from-port="0" to-layer="376" to-port="1" />
		<edge from-layer="317" from-port="0" to-layer="343" to-port="1" />
		<edge from-layer="318" from-port="2" to-layer="320" to-port="0" />
		<edge from-layer="319" from-port="0" to-layer="320" to-port="1" />
		<edge from-layer="320" from-port="2" to-layer="321" to-port="0" />
		<edge from-layer="321" from-port="1" to-layer="322" to-port="1" />
		<edge from-layer="322" from-port="2" to-layer="348" to-port="0" />
		<edge from-layer="323" from-port="0" to-layer="324" to-port="1" />
		<edge from-layer="324" from-port="2" to-layer="326" to-port="0" />
		<edge from-layer="325" from-port="0" to-layer="326" to-port="1" />
		<edge from-layer="326" from-port="2" to-layer="328" to-port="0" />
		<edge from-layer="327" from-port="0" to-layer="328" to-port="1" />
		<edge from-layer="328" from-port="2" to-layer="329" to-port="0" />
		<edge from-layer="329" from-port="1" to-layer="331" to-port="0" />
		<edge from-layer="330" from-port="0" to-layer="331" to-port="1" />
		<edge from-layer="331" from-port="2" to-layer="333" to-port="0" />
		<edge from-layer="332" from-port="0" to-layer="333" to-port="1" />
		<edge from-layer="333" from-port="2" to-layer="335" to-port="0" />
		<edge from-layer="334" from-port="0" to-layer="335" to-port="1" />
		<edge from-layer="335" from-port="2" to-layer="336" to-port="0" />
		<edge from-layer="336" from-port="1" to-layer="338" to-port="0" />
		<edge from-layer="336" from-port="1" to-layer="347" to-port="0" />
		<edge from-layer="337" from-port="0" to-layer="338" to-port="1" />
		<edge from-layer="338" from-port="2" to-layer="339" to-port="0" />
		<edge from-layer="339" from-port="2" to-layer="341" to-port="0" />
		<edge from-layer="340" from-port="0" to-layer="341" to-port="1" />
		<edge from-layer="341" from-port="2" to-layer="342" to-port="0" />
		<edge from-layer="342" from-port="1" to-layer="343" to-port="0" />
		<edge from-layer="343" from-port="2" to-layer="345" to-port="0" />
		<edge from-layer="344" from-port="0" to-layer="345" to-port="1" />
		<edge from-layer="345" from-port="2" to-layer="346" to-port="0" />
		<edge from-layer="346" from-port="1" to-layer="347" to-port="1" />
		<edge from-layer="347" from-port="2" to-layer="348" to-port="1" />
		<edge from-layer="348" from-port="2" to-layer="381" to-port="0" />
		<edge from-layer="349" from-port="0" to-layer="350" to-port="1" />
		<edge from-layer="350" from-port="2" to-layer="352" to-port="0" />
		<edge from-layer="351" from-port="0" to-layer="352" to-port="1" />
		<edge from-layer="352" from-port="2" to-layer="354" to-port="0" />
		<edge from-layer="353" from-port="0" to-layer="354" to-port="1" />
		<edge from-layer="354" from-port="2" to-layer="355" to-port="0" />
		<edge from-layer="355" from-port="1" to-layer="357" to-port="0" />
		<edge from-layer="356" from-port="0" to-layer="357" to-port="1" />
		<edge from-layer="357" from-port="2" to-layer="359" to-port="0" />
		<edge from-layer="358" from-port="0" to-layer="359" to-port="1" />
		<edge from-layer="359" from-port="2" to-layer="361" to-port="0" />
		<edge from-layer="360" from-port="0" to-layer="361" to-port="1" />
		<edge from-layer="361" from-port="2" to-layer="362" to-port="0" />
		<edge from-layer="362" from-port="1" to-layer="364" to-port="0" />
		<edge from-layer="363" from-port="0" to-layer="364" to-port="1" />
		<edge from-layer="364" from-port="2" to-layer="366" to-port="0" />
		<edge from-layer="365" from-port="0" to-layer="366" to-port="1" />
		<edge from-layer="366" from-port="2" to-layer="368" to-port="0" />
		<edge from-layer="367" from-port="0" to-layer="368" to-port="1" />
		<edge from-layer="368" from-port="2" to-layer="369" to-port="0" />
		<edge from-layer="369" from-port="1" to-layer="371" to-port="0" />
		<edge from-layer="369" from-port="1" to-layer="380" to-port="0" />
		<edge from-layer="370" from-port="0" to-layer="371" to-port="1" />
		<edge from-layer="371" from-port="2" to-layer="372" to-port="0" />
		<edge from-layer="372" from-port="2" to-layer="374" to-port="0" />
		<edge from-layer="373" from-port="0" to-layer="374" to-port="1" />
		<edge from-layer="374" from-port="2" to-layer="375" to-port="0" />
		<edge from-layer="375" from-port="1" to-layer="376" to-port="0" />
		<edge from-layer="376" from-port="2" to-layer="378" to-port="0" />
		<edge from-layer="377" from-port="0" to-layer="378" to-port="1" />
		<edge from-layer="378" from-port="2" to-layer="379" to-port="0" />
		<edge from-layer="379" from-port="1" to-layer="380" to-port="1" />
		<edge from-layer="380" from-port="2" to-layer="381" to-port="1" />
		<edge from-layer="381" from-port="2" to-layer="421" to-port="0" />
		<edge from-layer="382" from-port="0" to-layer="383" to-port="1" />
		<edge from-layer="383" from-port="2" to-layer="385" to-port="0" />
		<edge from-layer="384" from-port="0" to-layer="385" to-port="1" />
		<edge from-layer="385" from-port="2" to-layer="387" to-port="0" />
		<edge from-layer="386" from-port="0" to-layer="387" to-port="1" />
		<edge from-layer="387" from-port="2" to-layer="388" to-port="0" />
		<edge from-layer="388" from-port="1" to-layer="390" to-port="0" />
		<edge from-layer="389" from-port="0" to-layer="390" to-port="1" />
		<edge from-layer="390" from-port="2" to-layer="392" to-port="0" />
		<edge from-layer="391" from-port="0" to-layer="392" to-port="1" />
		<edge from-layer="392" from-port="2" to-layer="394" to-port="0" />
		<edge from-layer="393" from-port="0" to-layer="394" to-port="1" />
		<edge from-layer="394" from-port="2" to-layer="395" to-port="0" />
		<edge from-layer="395" from-port="1" to-layer="397" to-port="0" />
		<edge from-layer="396" from-port="0" to-layer="397" to-port="1" />
		<edge from-layer="397" from-port="2" to-layer="399" to-port="0" />
		<edge from-layer="398" from-port="0" to-layer="399" to-port="1" />
		<edge from-layer="399" from-port="2" to-layer="401" to-port="0" />
		<edge from-layer="400" from-port="0" to-layer="401" to-port="1" />
		<edge from-layer="401" from-port="2" to-layer="402" to-port="0" />
		<edge from-layer="402" from-port="1" to-layer="404" to-port="0" />
		<edge from-layer="403" from-port="0" to-layer="404" to-port="1" />
		<edge from-layer="404" from-port="2" to-layer="406" to-port="0" />
		<edge from-layer="405" from-port="0" to-layer="406" to-port="1" />
		<edge from-layer="406" from-port="2" to-layer="408" to-port="0" />
		<edge from-layer="407" from-port="0" to-layer="408" to-port="1" />
		<edge from-layer="408" from-port="2" to-layer="409" to-port="0" />
		<edge from-layer="409" from-port="1" to-layer="411" to-port="0" />
		<edge from-layer="409" from-port="1" to-layer="420" to-port="0" />
		<edge from-layer="410" from-port="0" to-layer="411" to-port="1" />
		<edge from-layer="411" from-port="2" to-layer="412" to-port="0" />
		<edge from-layer="412" from-port="2" to-layer="414" to-port="0" />
		<edge from-layer="413" from-port="0" to-layer="414" to-port="1" />
		<edge from-layer="414" from-port="2" to-layer="415" to-port="0" />
		<edge from-layer="415" from-port="1" to-layer="416" to-port="0" />
		<edge from-layer="416" from-port="2" to-layer="418" to-port="0" />
		<edge from-layer="417" from-port="0" to-layer="418" to-port="1" />
		<edge from-layer="418" from-port="2" to-layer="419" to-port="0" />
		<edge from-layer="419" from-port="1" to-layer="420" to-port="1" />
		<edge from-layer="420" from-port="2" to-layer="421" to-port="1" />
		<edge from-layer="421" from-port="2" to-layer="423" to-port="0" />
		<edge from-layer="422" from-port="0" to-layer="423" to-port="1" />
		<edge from-layer="423" from-port="2" to-layer="425" to-port="0" />
		<edge from-layer="424" from-port="0" to-layer="425" to-port="1" />
		<edge from-layer="425" from-port="2" to-layer="430" to-port="0" />
		<edge from-layer="426" from-port="0" to-layer="427" to-port="1" />
		<edge from-layer="427" from-port="2" to-layer="429" to-port="0" />
		<edge from-layer="428" from-port="0" to-layer="429" to-port="1" />
		<edge from-layer="429" from-port="2" to-layer="430" to-port="1" />
		<edge from-layer="430" from-port="2" to-layer="431" to-port="0" />
		<edge from-layer="431" from-port="1" to-layer="433" to-port="0" />
		<edge from-layer="431" from-port="1" to-layer="564" to-port="1" />
		<edge from-layer="432" from-port="0" to-layer="433" to-port="1" />
		<edge from-layer="433" from-port="2" to-layer="435" to-port="0" />
		<edge from-layer="434" from-port="0" to-layer="435" to-port="1" />
		<edge from-layer="435" from-port="2" to-layer="436" to-port="0" />
		<edge from-layer="436" from-port="1" to-layer="438" to-port="0" />
		<edge from-layer="436" from-port="1" to-layer="458" to-port="0" />
		<edge from-layer="436" from-port="1" to-layer="484" to-port="0" />
		<edge from-layer="436" from-port="1" to-layer="517" to-port="0" />
		<edge from-layer="437" from-port="0" to-layer="438" to-port="1" />
		<edge from-layer="438" from-port="2" to-layer="440" to-port="0" />
		<edge from-layer="439" from-port="0" to-layer="440" to-port="1" />
		<edge from-layer="440" from-port="2" to-layer="442" to-port="0" />
		<edge from-layer="441" from-port="0" to-layer="442" to-port="1" />
		<edge from-layer="442" from-port="2" to-layer="443" to-port="0" />
		<edge from-layer="443" from-port="1" to-layer="445" to-port="0" />
		<edge from-layer="443" from-port="1" to-layer="456" to-port="0" />
		<edge from-layer="444" from-port="0" to-layer="445" to-port="1" />
		<edge from-layer="445" from-port="2" to-layer="447" to-port="0" />
		<edge from-layer="446" from-port="0" to-layer="447" to-port="1" />
		<edge from-layer="446" from-port="0" to-layer="473" to-port="1" />
		<edge from-layer="446" from-port="0" to-layer="506" to-port="1" />
		<edge from-layer="446" from-port="0" to-layer="546" to-port="1" />
		<edge from-layer="447" from-port="2" to-layer="449" to-port="0" />
		<edge from-layer="448" from-port="0" to-layer="449" to-port="1" />
		<edge from-layer="449" from-port="2" to-layer="450" to-port="0" />
		<edge from-layer="450" from-port="1" to-layer="452" to-port="0" />
		<edge from-layer="451" from-port="0" to-layer="477" to-port="1" />
		<edge from-layer="451" from-port="0" to-layer="452" to-port="1" />
		<edge from-layer="451" from-port="0" to-layer="550" to-port="1" />
		<edge from-layer="451" from-port="0" to-layer="510" to-port="1" />
		<edge from-layer="452" from-port="2" to-layer="454" to-port="0" />
		<edge from-layer="453" from-port="0" to-layer="454" to-port="1" />
		<edge from-layer="454" from-port="2" to-layer="455" to-port="0" />
		<edge from-layer="455" from-port="1" to-layer="456" to-port="1" />
		<edge from-layer="456" from-port="2" to-layer="482" to-port="0" />
		<edge from-layer="457" from-port="0" to-layer="458" to-port="1" />
		<edge from-layer="458" from-port="2" to-layer="460" to-port="0" />
		<edge from-layer="459" from-port="0" to-layer="460" to-port="1" />
		<edge from-layer="460" from-port="2" to-layer="462" to-port="0" />
		<edge from-layer="461" from-port="0" to-layer="462" to-port="1" />
		<edge from-layer="462" from-port="2" to-layer="463" to-port="0" />
		<edge from-layer="463" from-port="1" to-layer="465" to-port="0" />
		<edge from-layer="464" from-port="0" to-layer="465" to-port="1" />
		<edge from-layer="465" from-port="2" to-layer="467" to-port="0" />
		<edge from-layer="466" from-port="0" to-layer="467" to-port="1" />
		<edge from-layer="467" from-port="2" to-layer="469" to-port="0" />
		<edge from-layer="468" from-port="0" to-layer="469" to-port="1" />
		<edge from-layer="469" from-port="2" to-layer="470" to-port="0" />
		<edge from-layer="470" from-port="1" to-layer="472" to-port="0" />
		<edge from-layer="470" from-port="1" to-layer="481" to-port="0" />
		<edge from-layer="471" from-port="0" to-layer="472" to-port="1" />
		<edge from-layer="472" from-port="2" to-layer="473" to-port="0" />
		<edge from-layer="473" from-port="2" to-layer="475" to-port="0" />
		<edge from-layer="474" from-port="0" to-layer="475" to-port="1" />
		<edge from-layer="475" from-port="2" to-layer="476" to-port="0" />
		<edge from-layer="476" from-port="1" to-layer="477" to-port="0" />
		<edge from-layer="477" from-port="2" to-layer="479" to-port="0" />
		<edge from-layer="478" from-port="0" to-layer="479" to-port="1" />
		<edge from-layer="479" from-port="2" to-layer="480" to-port="0" />
		<edge from-layer="480" from-port="1" to-layer="481" to-port="1" />
		<edge from-layer="481" from-port="2" to-layer="482" to-port="1" />
		<edge from-layer="482" from-port="2" to-layer="515" to-port="0" />
		<edge from-layer="483" from-port="0" to-layer="484" to-port="1" />
		<edge from-layer="484" from-port="2" to-layer="486" to-port="0" />
		<edge from-layer="485" from-port="0" to-layer="486" to-port="1" />
		<edge from-layer="486" from-port="2" to-layer="488" to-port="0" />
		<edge from-layer="487" from-port="0" to-layer="488" to-port="1" />
		<edge from-layer="488" from-port="2" to-layer="489" to-port="0" />
		<edge from-layer="489" from-port="1" to-layer="491" to-port="0" />
		<edge from-layer="490" from-port="0" to-layer="491" to-port="1" />
		<edge from-layer="491" from-port="2" to-layer="493" to-port="0" />
		<edge from-layer="492" from-port="0" to-layer="493" to-port="1" />
		<edge from-layer="493" from-port="2" to-layer="495" to-port="0" />
		<edge from-layer="494" from-port="0" to-layer="495" to-port="1" />
		<edge from-layer="495" from-port="2" to-layer="496" to-port="0" />
		<edge from-layer="496" from-port="1" to-layer="498" to-port="0" />
		<edge from-layer="497" from-port="0" to-layer="498" to-port="1" />
		<edge from-layer="498" from-port="2" to-layer="500" to-port="0" />
		<edge from-layer="499" from-port="0" to-layer="500" to-port="1" />
		<edge from-layer="500" from-port="2" to-layer="502" to-port="0" />
		<edge from-layer="501" from-port="0" to-layer="502" to-port="1" />
		<edge from-layer="502" from-port="2" to-layer="503" to-port="0" />
		<edge from-layer="503" from-port="1" to-layer="505" to-port="0" />
		<edge from-layer="503" from-port="1" to-layer="514" to-port="0" />
		<edge from-layer="504" from-port="0" to-layer="505" to-port="1" />
		<edge from-layer="505" from-port="2" to-layer="506" to-port="0" />
		<edge from-layer="506" from-port="2" to-layer="508" to-port="0" />
		<edge from-layer="507" from-port="0" to-layer="508" to-port="1" />
		<edge from-layer="508" from-port="2" to-layer="509" to-port="0" />
		<edge from-layer="509" from-port="1" to-layer="510" to-port="0" />
		<edge from-layer="510" from-port="2" to-layer="512" to-port="0" />
		<edge from-layer="511" from-port="0" to-layer="512" to-port="1" />
		<edge from-layer="512" from-port="2" to-layer="513" to-port="0" />
		<edge from-layer="513" from-port="1" to-layer="514" to-port="1" />
		<edge from-layer="514" from-port="2" to-layer="515" to-port="1" />
		<edge from-layer="515" from-port="2" to-layer="555" to-port="0" />
		<edge from-layer="516" from-port="0" to-layer="517" to-port="1" />
		<edge from-layer="517" from-port="2" to-layer="519" to-port="0" />
		<edge from-layer="518" from-port="0" to-layer="519" to-port="1" />
		<edge from-layer="519" from-port="2" to-layer="521" to-port="0" />
		<edge from-layer="520" from-port="0" to-layer="521" to-port="1" />
		<edge from-layer="521" from-port="2" to-layer="522" to-port="0" />
		<edge from-layer="522" from-port="1" to-layer="524" to-port="0" />
		<edge from-layer="523" from-port="0" to-layer="524" to-port="1" />
		<edge from-layer="524" from-port="2" to-layer="526" to-port="0" />
		<edge from-layer="525" from-port="0" to-layer="526" to-port="1" />
		<edge from-layer="526" from-port="2" to-layer="528" to-port="0" />
		<edge from-layer="527" from-port="0" to-layer="528" to-port="1" />
		<edge from-layer="528" from-port="2" to-layer="529" to-port="0" />
		<edge from-layer="529" from-port="1" to-layer="531" to-port="0" />
		<edge from-layer="530" from-port="0" to-layer="531" to-port="1" />
		<edge from-layer="531" from-port="2" to-layer="533" to-port="0" />
		<edge from-layer="532" from-port="0" to-layer="533" to-port="1" />
		<edge from-layer="533" from-port="2" to-layer="535" to-port="0" />
		<edge from-layer="534" from-port="0" to-layer="535" to-port="1" />
		<edge from-layer="535" from-port="2" to-layer="536" to-port="0" />
		<edge from-layer="536" from-port="1" to-layer="538" to-port="0" />
		<edge from-layer="537" from-port="0" to-layer="538" to-port="1" />
		<edge from-layer="538" from-port="2" to-layer="540" to-port="0" />
		<edge from-layer="539" from-port="0" to-layer="540" to-port="1" />
		<edge from-layer="540" from-port="2" to-layer="542" to-port="0" />
		<edge from-layer="541" from-port="0" to-layer="542" to-port="1" />
		<edge from-layer="542" from-port="2" to-layer="543" to-port="0" />
		<edge from-layer="543" from-port="1" to-layer="554" to-port="0" />
		<edge from-layer="543" from-port="1" to-layer="545" to-port="0" />
		<edge from-layer="544" from-port="0" to-layer="545" to-port="1" />
		<edge from-layer="545" from-port="2" to-layer="546" to-port="0" />
		<edge from-layer="546" from-port="2" to-layer="548" to-port="0" />
		<edge from-layer="547" from-port="0" to-layer="548" to-port="1" />
		<edge from-layer="548" from-port="2" to-layer="549" to-port="0" />
		<edge from-layer="549" from-port="1" to-layer="550" to-port="0" />
		<edge from-layer="550" from-port="2" to-layer="552" to-port="0" />
		<edge from-layer="551" from-port="0" to-layer="552" to-port="1" />
		<edge from-layer="552" from-port="2" to-layer="553" to-port="0" />
		<edge from-layer="553" from-port="1" to-layer="554" to-port="1" />
		<edge from-layer="554" from-port="2" to-layer="555" to-port="1" />
		<edge from-layer="555" from-port="2" to-layer="557" to-port="0" />
		<edge from-layer="556" from-port="0" to-layer="557" to-port="1" />
		<edge from-layer="557" from-port="2" to-layer="559" to-port="0" />
		<edge from-layer="558" from-port="0" to-layer="559" to-port="1" />
		<edge from-layer="559" from-port="2" to-layer="561" to-port="0" />
		<edge from-layer="560" from-port="0" to-layer="561" to-port="1" />
		<edge from-layer="561" from-port="2" to-layer="563" to-port="0" />
		<edge from-layer="562" from-port="0" to-layer="563" to-port="1" />
		<edge from-layer="563" from-port="2" to-layer="564" to-port="0" />
		<edge from-layer="564" from-port="2" to-layer="565" to-port="0" />
		<edge from-layer="565" from-port="1" to-layer="567" to-port="0" />
		<edge from-layer="566" from-port="0" to-layer="567" to-port="1" />
		<edge from-layer="567" from-port="2" to-layer="569" to-port="0" />
		<edge from-layer="568" from-port="0" to-layer="569" to-port="1" />
		<edge from-layer="569" from-port="2" to-layer="570" to-port="0" />
		<edge from-layer="570" from-port="1" to-layer="571" to-port="0" />
		<edge from-layer="571" from-port="1" to-layer="573" to-port="0" />
		<edge from-layer="571" from-port="1" to-layer="705" to-port="0" />
		<edge from-layer="572" from-port="0" to-layer="573" to-port="1" />
		<edge from-layer="573" from-port="2" to-layer="575" to-port="0" />
		<edge from-layer="574" from-port="0" to-layer="575" to-port="1" />
		<edge from-layer="575" from-port="2" to-layer="576" to-port="0" />
		<edge from-layer="576" from-port="1" to-layer="578" to-port="0" />
		<edge from-layer="576" from-port="1" to-layer="657" to-port="0" />
		<edge from-layer="576" from-port="1" to-layer="624" to-port="0" />
		<edge from-layer="576" from-port="1" to-layer="598" to-port="0" />
		<edge from-layer="577" from-port="0" to-layer="578" to-port="1" />
		<edge from-layer="578" from-port="2" to-layer="580" to-port="0" />
		<edge from-layer="579" from-port="0" to-layer="580" to-port="1" />
		<edge from-layer="580" from-port="2" to-layer="582" to-port="0" />
		<edge from-layer="581" from-port="0" to-layer="582" to-port="1" />
		<edge from-layer="582" from-port="2" to-layer="583" to-port="0" />
		<edge from-layer="583" from-port="1" to-layer="585" to-port="0" />
		<edge from-layer="583" from-port="1" to-layer="596" to-port="0" />
		<edge from-layer="584" from-port="0" to-layer="585" to-port="1" />
		<edge from-layer="585" from-port="2" to-layer="587" to-port="0" />
		<edge from-layer="586" from-port="0" to-layer="646" to-port="1" />
		<edge from-layer="586" from-port="0" to-layer="686" to-port="1" />
		<edge from-layer="586" from-port="0" to-layer="587" to-port="1" />
		<edge from-layer="586" from-port="0" to-layer="613" to-port="1" />
		<edge from-layer="587" from-port="2" to-layer="589" to-port="0" />
		<edge from-layer="588" from-port="0" to-layer="589" to-port="1" />
		<edge from-layer="589" from-port="2" to-layer="590" to-port="0" />
		<edge from-layer="590" from-port="1" to-layer="592" to-port="0" />
		<edge from-layer="591" from-port="0" to-layer="690" to-port="1" />
		<edge from-layer="591" from-port="0" to-layer="650" to-port="1" />
		<edge from-layer="591" from-port="0" to-layer="592" to-port="1" />
		<edge from-layer="591" from-port="0" to-layer="617" to-port="1" />
		<edge from-layer="592" from-port="2" to-layer="594" to-port="0" />
		<edge from-layer="593" from-port="0" to-layer="594" to-port="1" />
		<edge from-layer="594" from-port="2" to-layer="595" to-port="0" />
		<edge from-layer="595" from-port="1" to-layer="596" to-port="1" />
		<edge from-layer="596" from-port="2" to-layer="622" to-port="0" />
		<edge from-layer="597" from-port="0" to-layer="598" to-port="1" />
		<edge from-layer="598" from-port="2" to-layer="600" to-port="0" />
		<edge from-layer="599" from-port="0" to-layer="600" to-port="1" />
		<edge from-layer="600" from-port="2" to-layer="602" to-port="0" />
		<edge from-layer="601" from-port="0" to-layer="602" to-port="1" />
		<edge from-layer="602" from-port="2" to-layer="603" to-port="0" />
		<edge from-layer="603" from-port="1" to-layer="605" to-port="0" />
		<edge from-layer="604" from-port="0" to-layer="605" to-port="1" />
		<edge from-layer="605" from-port="2" to-layer="607" to-port="0" />
		<edge from-layer="606" from-port="0" to-layer="607" to-port="1" />
		<edge from-layer="607" from-port="2" to-layer="609" to-port="0" />
		<edge from-layer="608" from-port="0" to-layer="609" to-port="1" />
		<edge from-layer="609" from-port="2" to-layer="610" to-port="0" />
		<edge from-layer="610" from-port="1" to-layer="621" to-port="0" />
		<edge from-layer="610" from-port="1" to-layer="612" to-port="0" />
		<edge from-layer="611" from-port="0" to-layer="612" to-port="1" />
		<edge from-layer="612" from-port="2" to-layer="613" to-port="0" />
		<edge from-layer="613" from-port="2" to-layer="615" to-port="0" />
		<edge from-layer="614" from-port="0" to-layer="615" to-port="1" />
		<edge from-layer="615" from-port="2" to-layer="616" to-port="0" />
		<edge from-layer="616" from-port="1" to-layer="617" to-port="0" />
		<edge from-layer="617" from-port="2" to-layer="619" to-port="0" />
		<edge from-layer="618" from-port="0" to-layer="619" to-port="1" />
		<edge from-layer="619" from-port="2" to-layer="620" to-port="0" />
		<edge from-layer="620" from-port="1" to-layer="621" to-port="1" />
		<edge from-layer="621" from-port="2" to-layer="622" to-port="1" />
		<edge from-layer="622" from-port="2" to-layer="655" to-port="0" />
		<edge from-layer="623" from-port="0" to-layer="624" to-port="1" />
		<edge from-layer="624" from-port="2" to-layer="626" to-port="0" />
		<edge from-layer="625" from-port="0" to-layer="626" to-port="1" />
		<edge from-layer="626" from-port="2" to-layer="628" to-port="0" />
		<edge from-layer="627" from-port="0" to-layer="628" to-port="1" />
		<edge from-layer="628" from-port="2" to-layer="629" to-port="0" />
		<edge from-layer="629" from-port="1" to-layer="631" to-port="0" />
		<edge from-layer="630" from-port="0" to-layer="631" to-port="1" />
		<edge from-layer="631" from-port="2" to-layer="633" to-port="0" />
		<edge from-layer="632" from-port="0" to-layer="633" to-port="1" />
		<edge from-layer="633" from-port="2" to-layer="635" to-port="0" />
		<edge from-layer="634" from-port="0" to-layer="635" to-port="1" />
		<edge from-layer="635" from-port="2" to-layer="636" to-port="0" />
		<edge from-layer="636" from-port="1" to-layer="638" to-port="0" />
		<edge from-layer="637" from-port="0" to-layer="638" to-port="1" />
		<edge from-layer="638" from-port="2" to-layer="640" to-port="0" />
		<edge from-layer="639" from-port="0" to-layer="640" to-port="1" />
		<edge from-layer="640" from-port="2" to-layer="642" to-port="0" />
		<edge from-layer="641" from-port="0" to-layer="642" to-port="1" />
		<edge from-layer="642" from-port="2" to-layer="643" to-port="0" />
		<edge from-layer="643" from-port="1" to-layer="645" to-port="0" />
		<edge from-layer="643" from-port="1" to-layer="654" to-port="0" />
		<edge from-layer="644" from-port="0" to-layer="645" to-port="1" />
		<edge from-layer="645" from-port="2" to-layer="646" to-port="0" />
		<edge from-layer="646" from-port="2" to-layer="648" to-port="0" />
		<edge from-layer="647" from-port="0" to-layer="648" to-port="1" />
		<edge from-layer="648" from-port="2" to-layer="649" to-port="0" />
		<edge from-layer="649" from-port="1" to-layer="650" to-port="0" />
		<edge from-layer="650" from-port="2" to-layer="652" to-port="0" />
		<edge from-layer="651" from-port="0" to-layer="652" to-port="1" />
		<edge from-layer="652" from-port="2" to-layer="653" to-port="0" />
		<edge from-layer="653" from-port="1" to-layer="654" to-port="1" />
		<edge from-layer="654" from-port="2" to-layer="655" to-port="1" />
		<edge from-layer="655" from-port="2" to-layer="695" to-port="0" />
		<edge from-layer="656" from-port="0" to-layer="657" to-port="1" />
		<edge from-layer="657" from-port="2" to-layer="659" to-port="0" />
		<edge from-layer="658" from-port="0" to-layer="659" to-port="1" />
		<edge from-layer="659" from-port="2" to-layer="661" to-port="0" />
		<edge from-layer="660" from-port="0" to-layer="661" to-port="1" />
		<edge from-layer="661" from-port="2" to-layer="662" to-port="0" />
		<edge from-layer="662" from-port="1" to-layer="664" to-port="0" />
		<edge from-layer="663" from-port="0" to-layer="664" to-port="1" />
		<edge from-layer="664" from-port="2" to-layer="666" to-port="0" />
		<edge from-layer="665" from-port="0" to-layer="666" to-port="1" />
		<edge from-layer="666" from-port="2" to-layer="668" to-port="0" />
		<edge from-layer="667" from-port="0" to-layer="668" to-port="1" />
		<edge from-layer="668" from-port="2" to-layer="669" to-port="0" />
		<edge from-layer="669" from-port="1" to-layer="671" to-port="0" />
		<edge from-layer="670" from-port="0" to-layer="671" to-port="1" />
		<edge from-layer="671" from-port="2" to-layer="673" to-port="0" />
		<edge from-layer="672" from-port="0" to-layer="673" to-port="1" />
		<edge from-layer="673" from-port="2" to-layer="675" to-port="0" />
		<edge from-layer="674" from-port="0" to-layer="675" to-port="1" />
		<edge from-layer="675" from-port="2" to-layer="676" to-port="0" />
		<edge from-layer="676" from-port="1" to-layer="678" to-port="0" />
		<edge from-layer="677" from-port="0" to-layer="678" to-port="1" />
		<edge from-layer="678" from-port="2" to-layer="680" to-port="0" />
		<edge from-layer="679" from-port="0" to-layer="680" to-port="1" />
		<edge from-layer="680" from-port="2" to-layer="682" to-port="0" />
		<edge from-layer="681" from-port="0" to-layer="682" to-port="1" />
		<edge from-layer="682" from-port="2" to-layer="683" to-port="0" />
		<edge from-layer="683" from-port="1" to-layer="694" to-port="0" />
		<edge from-layer="683" from-port="1" to-layer="685" to-port="0" />
		<edge from-layer="684" from-port="0" to-layer="685" to-port="1" />
		<edge from-layer="685" from-port="2" to-layer="686" to-port="0" />
		<edge from-layer="686" from-port="2" to-layer="688" to-port="0" />
		<edge from-layer="687" from-port="0" to-layer="688" to-port="1" />
		<edge from-layer="688" from-port="2" to-layer="689" to-port="0" />
		<edge from-layer="689" from-port="1" to-layer="690" to-port="0" />
		<edge from-layer="690" from-port="2" to-layer="692" to-port="0" />
		<edge from-layer="691" from-port="0" to-layer="692" to-port="1" />
		<edge from-layer="692" from-port="2" to-layer="693" to-port="0" />
		<edge from-layer="693" from-port="1" to-layer="694" to-port="1" />
		<edge from-layer="694" from-port="2" to-layer="695" to-port="1" />
		<edge from-layer="695" from-port="2" to-layer="697" to-port="0" />
		<edge from-layer="696" from-port="0" to-layer="697" to-port="1" />
		<edge from-layer="697" from-port="2" to-layer="699" to-port="0" />
		<edge from-layer="698" from-port="0" to-layer="699" to-port="1" />
		<edge from-layer="699" from-port="2" to-layer="701" to-port="0" />
		<edge from-layer="700" from-port="0" to-layer="701" to-port="1" />
		<edge from-layer="701" from-port="2" to-layer="703" to-port="0" />
		<edge from-layer="702" from-port="0" to-layer="703" to-port="1" />
		<edge from-layer="703" from-port="2" to-layer="708" to-port="0" />
		<edge from-layer="704" from-port="0" to-layer="705" to-port="1" />
		<edge from-layer="705" from-port="2" to-layer="707" to-port="0" />
		<edge from-layer="706" from-port="0" to-layer="707" to-port="1" />
		<edge from-layer="707" from-port="2" to-layer="708" to-port="1" />
		<edge from-layer="708" from-port="2" to-layer="709" to-port="0" />
		<edge from-layer="709" from-port="1" to-layer="711" to-port="0" />
		<edge from-layer="709" from-port="1" to-layer="838" to-port="1" />
		<edge from-layer="710" from-port="0" to-layer="711" to-port="1" />
		<edge from-layer="711" from-port="2" to-layer="713" to-port="0" />
		<edge from-layer="712" from-port="0" to-layer="713" to-port="1" />
		<edge from-layer="713" from-port="2" to-layer="714" to-port="0" />
		<edge from-layer="714" from-port="1" to-layer="716" to-port="0" />
		<edge from-layer="714" from-port="1" to-layer="736" to-port="0" />
		<edge from-layer="714" from-port="1" to-layer="762" to-port="0" />
		<edge from-layer="714" from-port="1" to-layer="795" to-port="0" />
		<edge from-layer="715" from-port="0" to-layer="716" to-port="1" />
		<edge from-layer="716" from-port="2" to-layer="718" to-port="0" />
		<edge from-layer="717" from-port="0" to-layer="718" to-port="1" />
		<edge from-layer="718" from-port="2" to-layer="720" to-port="0" />
		<edge from-layer="719" from-port="0" to-layer="720" to-port="1" />
		<edge from-layer="720" from-port="2" to-layer="721" to-port="0" />
		<edge from-layer="721" from-port="1" to-layer="723" to-port="0" />
		<edge from-layer="721" from-port="1" to-layer="734" to-port="0" />
		<edge from-layer="722" from-port="0" to-layer="723" to-port="1" />
		<edge from-layer="723" from-port="2" to-layer="725" to-port="0" />
		<edge from-layer="724" from-port="0" to-layer="725" to-port="1" />
		<edge from-layer="724" from-port="0" to-layer="824" to-port="1" />
		<edge from-layer="724" from-port="0" to-layer="784" to-port="1" />
		<edge from-layer="724" from-port="0" to-layer="751" to-port="1" />
		<edge from-layer="725" from-port="2" to-layer="727" to-port="0" />
		<edge from-layer="726" from-port="0" to-layer="727" to-port="1" />
		<edge from-layer="727" from-port="2" to-layer="728" to-port="0" />
		<edge from-layer="728" from-port="1" to-layer="730" to-port="0" />
		<edge from-layer="729" from-port="0" to-layer="828" to-port="1" />
		<edge from-layer="729" from-port="0" to-layer="788" to-port="1" />
		<edge from-layer="729" from-port="0" to-layer="730" to-port="1" />
		<edge from-layer="729" from-port="0" to-layer="755" to-port="1" />
		<edge from-layer="730" from-port="2" to-layer="732" to-port="0" />
		<edge from-layer="731" from-port="0" to-layer="732" to-port="1" />
		<edge from-layer="732" from-port="2" to-layer="733" to-port="0" />
		<edge from-layer="733" from-port="1" to-layer="734" to-port="1" />
		<edge from-layer="734" from-port="2" to-layer="760" to-port="0" />
		<edge from-layer="735" from-port="0" to-layer="736" to-port="1" />
		<edge from-layer="736" from-port="2" to-layer="738" to-port="0" />
		<edge from-layer="737" from-port="0" to-layer="738" to-port="1" />
		<edge from-layer="738" from-port="2" to-layer="740" to-port="0" />
		<edge from-layer="739" from-port="0" to-layer="740" to-port="1" />
		<edge from-layer="740" from-port="2" to-layer="741" to-port="0" />
		<edge from-layer="741" from-port="1" to-layer="743" to-port="0" />
		<edge from-layer="742" from-port="0" to-layer="743" to-port="1" />
		<edge from-layer="743" from-port="2" to-layer="745" to-port="0" />
		<edge from-layer="744" from-port="0" to-layer="745" to-port="1" />
		<edge from-layer="745" from-port="2" to-layer="747" to-port="0" />
		<edge from-layer="746" from-port="0" to-layer="747" to-port="1" />
		<edge from-layer="747" from-port="2" to-layer="748" to-port="0" />
		<edge from-layer="748" from-port="1" to-layer="750" to-port="0" />
		<edge from-layer="748" from-port="1" to-layer="759" to-port="0" />
		<edge from-layer="749" from-port="0" to-layer="750" to-port="1" />
		<edge from-layer="750" from-port="2" to-layer="751" to-port="0" />
		<edge from-layer="751" from-port="2" to-layer="753" to-port="0" />
		<edge from-layer="752" from-port="0" to-layer="753" to-port="1" />
		<edge from-layer="753" from-port="2" to-layer="754" to-port="0" />
		<edge from-layer="754" from-port="1" to-layer="755" to-port="0" />
		<edge from-layer="755" from-port="2" to-layer="757" to-port="0" />
		<edge from-layer="756" from-port="0" to-layer="757" to-port="1" />
		<edge from-layer="757" from-port="2" to-layer="758" to-port="0" />
		<edge from-layer="758" from-port="1" to-layer="759" to-port="1" />
		<edge from-layer="759" from-port="2" to-layer="760" to-port="1" />
		<edge from-layer="760" from-port="2" to-layer="793" to-port="0" />
		<edge from-layer="761" from-port="0" to-layer="762" to-port="1" />
		<edge from-layer="762" from-port="2" to-layer="764" to-port="0" />
		<edge from-layer="763" from-port="0" to-layer="764" to-port="1" />
		<edge from-layer="764" from-port="2" to-layer="766" to-port="0" />
		<edge from-layer="765" from-port="0" to-layer="766" to-port="1" />
		<edge from-layer="766" from-port="2" to-layer="767" to-port="0" />
		<edge from-layer="767" from-port="1" to-layer="769" to-port="0" />
		<edge from-layer="768" from-port="0" to-layer="769" to-port="1" />
		<edge from-layer="769" from-port="2" to-layer="771" to-port="0" />
		<edge from-layer="770" from-port="0" to-layer="771" to-port="1" />
		<edge from-layer="771" from-port="2" to-layer="773" to-port="0" />
		<edge from-layer="772" from-port="0" to-layer="773" to-port="1" />
		<edge from-layer="773" from-port="2" to-layer="774" to-port="0" />
		<edge from-layer="774" from-port="1" to-layer="776" to-port="0" />
		<edge from-layer="775" from-port="0" to-layer="776" to-port="1" />
		<edge from-layer="776" from-port="2" to-layer="778" to-port="0" />
		<edge from-layer="777" from-port="0" to-layer="778" to-port="1" />
		<edge from-layer="778" from-port="2" to-layer="780" to-port="0" />
		<edge from-layer="779" from-port="0" to-layer="780" to-port="1" />
		<edge from-layer="780" from-port="2" to-layer="781" to-port="0" />
		<edge from-layer="781" from-port="1" to-layer="783" to-port="0" />
		<edge from-layer="781" from-port="1" to-layer="792" to-port="0" />
		<edge from-layer="782" from-port="0" to-layer="783" to-port="1" />
		<edge from-layer="783" from-port="2" to-layer="784" to-port="0" />
		<edge from-layer="784" from-port="2" to-layer="786" to-port="0" />
		<edge from-layer="785" from-port="0" to-layer="786" to-port="1" />
		<edge from-layer="786" from-port="2" to-layer="787" to-port="0" />
		<edge from-layer="787" from-port="1" to-layer="788" to-port="0" />
		<edge from-layer="788" from-port="2" to-layer="790" to-port="0" />
		<edge from-layer="789" from-port="0" to-layer="790" to-port="1" />
		<edge from-layer="790" from-port="2" to-layer="791" to-port="0" />
		<edge from-layer="791" from-port="1" to-layer="792" to-port="1" />
		<edge from-layer="792" from-port="2" to-layer="793" to-port="1" />
		<edge from-layer="793" from-port="2" to-layer="833" to-port="0" />
		<edge from-layer="794" from-port="0" to-layer="795" to-port="1" />
		<edge from-layer="795" from-port="2" to-layer="797" to-port="0" />
		<edge from-layer="796" from-port="0" to-layer="797" to-port="1" />
		<edge from-layer="797" from-port="2" to-layer="799" to-port="0" />
		<edge from-layer="798" from-port="0" to-layer="799" to-port="1" />
		<edge from-layer="799" from-port="2" to-layer="800" to-port="0" />
		<edge from-layer="800" from-port="1" to-layer="802" to-port="0" />
		<edge from-layer="801" from-port="0" to-layer="802" to-port="1" />
		<edge from-layer="802" from-port="2" to-layer="804" to-port="0" />
		<edge from-layer="803" from-port="0" to-layer="804" to-port="1" />
		<edge from-layer="804" from-port="2" to-layer="806" to-port="0" />
		<edge from-layer="805" from-port="0" to-layer="806" to-port="1" />
		<edge from-layer="806" from-port="2" to-layer="807" to-port="0" />
		<edge from-layer="807" from-port="1" to-layer="809" to-port="0" />
		<edge from-layer="808" from-port="0" to-layer="809" to-port="1" />
		<edge from-layer="809" from-port="2" to-layer="811" to-port="0" />
		<edge from-layer="810" from-port="0" to-layer="811" to-port="1" />
		<edge from-layer="811" from-port="2" to-layer="813" to-port="0" />
		<edge from-layer="812" from-port="0" to-layer="813" to-port="1" />
		<edge from-layer="813" from-port="2" to-layer="814" to-port="0" />
		<edge from-layer="814" from-port="1" to-layer="816" to-port="0" />
		<edge from-layer="815" from-port="0" to-layer="816" to-port="1" />
		<edge from-layer="816" from-port="2" to-layer="818" to-port="0" />
		<edge from-layer="817" from-port="0" to-layer="818" to-port="1" />
		<edge from-layer="818" from-port="2" to-layer="820" to-port="0" />
		<edge from-layer="819" from-port="0" to-layer="820" to-port="1" />
		<edge from-layer="820" from-port="2" to-layer="821" to-port="0" />
		<edge from-layer="821" from-port="1" to-layer="823" to-port="0" />
		<edge from-layer="821" from-port="1" to-layer="832" to-port="0" />
		<edge from-layer="822" from-port="0" to-layer="823" to-port="1" />
		<edge from-layer="823" from-port="2" to-layer="824" to-port="0" />
		<edge from-layer="824" from-port="2" to-layer="826" to-port="0" />
		<edge from-layer="825" from-port="0" to-layer="826" to-port="1" />
		<edge from-layer="826" from-port="2" to-layer="827" to-port="0" />
		<edge from-layer="827" from-port="1" to-layer="828" to-port="0" />
		<edge from-layer="828" from-port="2" to-layer="830" to-port="0" />
		<edge from-layer="829" from-port="0" to-layer="830" to-port="1" />
		<edge from-layer="830" from-port="2" to-layer="831" to-port="0" />
		<edge from-layer="831" from-port="1" to-layer="832" to-port="1" />
		<edge from-layer="832" from-port="2" to-layer="833" to-port="1" />
		<edge from-layer="833" from-port="2" to-layer="835" to-port="0" />
		<edge from-layer="834" from-port="0" to-layer="835" to-port="1" />
		<edge from-layer="835" from-port="2" to-layer="837" to-port="0" />
		<edge from-layer="836" from-port="0" to-layer="837" to-port="1" />
		<edge from-layer="837" from-port="2" to-layer="838" to-port="0" />
		<edge from-layer="838" from-port="2" to-layer="839" to-port="0" />
		<edge from-layer="839" from-port="1" to-layer="841" to-port="0" />
		<edge from-layer="840" from-port="0" to-layer="841" to-port="1" />
		<edge from-layer="841" from-port="2" to-layer="843" to-port="0" />
		<edge from-layer="842" from-port="0" to-layer="843" to-port="1" />
		<edge from-layer="843" from-port="2" to-layer="844" to-port="0" />
		<edge from-layer="844" from-port="1" to-layer="846" to-port="0" />
		<edge from-layer="845" from-port="0" to-layer="846" to-port="1" />
		<edge from-layer="846" from-port="2" to-layer="848" to-port="0" />
		<edge from-layer="847" from-port="0" to-layer="848" to-port="1" />
		<edge from-layer="848" from-port="2" to-layer="850" to-port="0" />
		<edge from-layer="848" from-port="2" to-layer="854" to-port="0" />
		<edge from-layer="849" from-port="0" to-layer="850" to-port="1" />
		<edge from-layer="850" from-port="2" to-layer="852" to-port="0" />
		<edge from-layer="851" from-port="0" to-layer="852" to-port="1" />
		<edge from-layer="852" from-port="2" to-layer="857" to-port="0" />
		<edge from-layer="853" from-port="0" to-layer="854" to-port="1" />
		<edge from-layer="854" from-port="2" to-layer="856" to-port="0" />
		<edge from-layer="855" from-port="0" to-layer="856" to-port="1" />
		<edge from-layer="856" from-port="2" to-layer="857" to-port="1" />
		<edge from-layer="857" from-port="2" to-layer="858" to-port="0" />
	</edges>
	<rt_info>
		<MO_version value="2024.2.0-15519-5c0f38f83f6-releases/2024/2" />
		<Runtime_version value="2024.2.0-15519-5c0f38f83f6-releases/2024/2" />
		<conversion_parameters>
			<framework value="onnx" />
			<input value="input" />
			<input_model value="DIR/osnet_ain_x1_0_vehicle_reid.onnx" />
			<input_shape value="[1, 3, 208, 208]" />
			<is_python_api_used value="False" />
			<layout value="input(NCHW)" />
			<model_name value="vehicle-reid-0001" />
			<output value="output" />
			<output_dir value="/Users/andreisaramet/ultralytics/myscripts/public/vehicle-reid-0001/FP32" />
			<reverse_input_channels value="True" />
		</conversion_parameters>
		<legacy_frontend value="False" />
	</rt_info>
</net>
